metaworld_data/metaworld_data/push/train/20240503T210627_30_b423_success.npz (npz, 58181 bytes, 5 tensors)

actions f8 [30, 4]
00000000: 4698 9036 ab13 e03f 2a63 194a 8274 ce3f
00000010: 1137 b6be ad01 d33f 3157 c3bc 6dea a73f
00000020: 1096 5770 06dd da3f 8758 c7ae c394 c23f
00000030: 2f3f c50b 330c d63f d1b7 6bd2 9730 b9bf
00000040: 70fc 9cee c9a2 cc3f 5b66 7682 d339 c23f
00000050: c7ee ffc6 9b78 cd3f f867 19d6 de76 a73f
00000060: b08a 834e ec33 c93f 40a4 2598 294c 913f
00000070: ce5e 7ece 3220 d43f 6cb5 bf40 d9b4 a53f
00000080: b419 875d 9399 d03f 2044 4298 f59e afbf
00000090: c68a 9fac 611f d13f 8edc 92c8 d5a6 933f
000000a0: b08f 70c8 9532 d33f 081b f8ab 9860 a43f
000000b0: 0000 0000 0000 f0bf 1340 f5b2 db9f 93bf
000000c0: 992e 4078 2464 c13f ecb6 8974 f6ad bbbf
000000d0: 0000 0000 0000 f0bf bde2 5f03 0493 a03f
000000e0: 7f6c a98d 7b51 be3f 500b 476b 692e 83bf
000000f0: 0000 0000 0000 f0bf 8380 f0b2 93fb a33f
00000100: 1816 e4ef a056 b03f ce7e d6fa 046e b13f
00000110: 0000 0000 0000 f0bf d829 de46 16e5 aebf
00000120: 0291 b684 91ad af3f 1aa8 606d 90c4 b23f
00000130: 0000 0000 0000 f0bf 64a2 f496 6559 a5bf
00000140: b8ff 2a0d ef8f c2bf 962b 5c00 1d31 ab3f
00000150: 0000 0000 0000 f0bf 750f 413f 6c31 99bf
00000160: fa88 8c63 dcd8 873f d874 eb77 182b c03f
00000170: 84b1 df02 82a0 edbf 275a c0be 9800 b73f
00000180: 0690 56c3 c190 a23f ab9b 9d91 5f18 bd3f
00000190: 4c48 917e 7096 eabf b7ff 38c0 0649 c23f
000001a0: 8e70 e117 0941 c0bf 1676 1a65 f07f bfbf
000001b0: aca5 cdb5 934d dabf c814 bd0d 48f9 df3f
000001c0: 8033 a29d d745 92bf 074a f345 629b c03f
000001d0: f49a 19c1 6546 dabf 0e3f b706 7329 e43f
000001e0: fc78 5899 8c09 9cbf cef5 19c6 3d0a 92bf
000001f0: 4eb2 8992 e85c d3bf 3eae e81b 7c18 dd3f
00000200: eac4 dc37 598c c03f 5027 7457 d338 c63f
00000210: 1824 2275 d9bd c4bf 1d3d 74bf f611 e53f
00000220: 0000 0000 0000 f0bf 0000 0000 0000 f03f
00000230: b210 ec24 4dce d0bf d04e e51b 55be e13f
00000240: 0000 0000 0000 f0bf 0000 0000 0000 f03f
00000250: 2f64 da33 6d49 d8bf 34df 619b fd72 e33f
00000260: 0000 0000 0000 f0bf 0000 0000 0000 f03f
00000270: a7d3 178b 46b8 dbbf 0e78 4f81 3a47 e23f
00000280: 0000 0000 0000 f0bf 0000 0000 0000 f03f
00000290: b6d5 bf95 6899 d9bf 5e4f 9260 d3cb e33f
000002a0: e540 fbb7 bfc1 efbf 0000 0000 0000 f03f
000002b0: b4fc 3d34 5080 cebf 5b60 6dd7 3e71 e03f
000002c0: 3aa3 2cf1 0fcf e6bf 0000 0000 0000 f03f
000002d0: b27d f291 06eb d4bf ff78 012a 6579 e33f
000002e0: ffb0 9eec e3c9 d8bf 0000 0000 0000 f03f
000002f0: ea88 1bb7 f7ee d3bf 8e91 b48e 2063 df3f
00000300: a938 e3ac 123a d7bf 0000 0000 0000 f03f
00000310: a609 db2b 5cb2 dbbf 8e33 a20f 772b e03f
00000320: ceaa df71 9287 d0bf 0000 0000 0000 f03f
00000330: 411b 5fc5 f53e dbbf 66cc 175a f439 df3f
00000340: 60e9 506b 1dcc 7e3f 0000 0000 0000 f03f
00000350: b840 5a9a 7b6a cdbf 62e3 ed8a 2393 da3f
00000360: 205d 77b3 0085 9ebf a464 d66b 4d1b e63f
00000370: a9a5 1f68 1f60 e0bf db09 9770 92cb ea3f
00000380: a04d 3ccd 4755 b43f 22f7 3fec 2037 e73f
00000390: 4cc3 e42f 12fc debf 44df 1408 88d1 e53f
000003a0: 5003 5113 b8dc 8b3f db75 0ddb 75af e43f
000003b0: 973d 69ff 470a e0bf ce0e 76ac 20b4 e43f
0.5024009767264566 0.2379305707752562 0.29697745918461843 0.04671042374836388 0.41974030466948964 0.1451649287616343 0.3444945921846622 -0.09839772116876523
0.2237179198363921 0.1423897158645556 0.23024317948135417 0.04582878459468981 0.19689706643756244 0.016892099295919616 0.31446523824113803 0.04239539065734274
0.25937351354186977 -0.06175963863018574 0.2675403772138164 0.01919111286835267 0.2999624688547966 0.03979947184784832 -1.0 -0.01916449813626293
0.13586860534302472 -0.10812321038403255 -1.0 0.03237164059823303 0.11843082626858069 -0.0093658672202587 -1.0 0.03902875480002967
0.06382184845650618 0.06808501361819738 -1.0 -0.06034154524884955 0.06187109704049655 0.07331183119154652 -1.0 -0.0416976687213875
-0.14501751082388892 0.053109079641294674 -1.0 -0.024602595673300216 0.011644098079675026 0.12631517272431014 -0.9258432441834406 0.08985285431877142
0.03626065740107269 0.1136531572825407 -0.8308641883870762 0.14285358796950984 -0.12698472658201293 -0.12304594486564499 -0.41098492387990393 0.4995899328390121
-0.017844552036467842 0.12974193969292022 -0.41054672105239765 0.6300597315948566 -0.027380177363846223 -0.017617192474508596 -0.3025456839593844 0.4546194336460053
0.12928309657721765 0.1736091782589093 -0.16204374522593024 0.6584428538643895 -1.0 1.0 -0.26259163480450376 0.5544839424933006
-1.0 1.0 -0.37948160232332645 0.6077869448481352 -1.0 1.0 -0.43312228759105625 0.5711948896021128
-1.0 1.0 -0.39998831390343115 0.6186310659563607 -0.9924009889018889 1.0 -0.23829081107030492 0.5138239104808336
-0.7127761564671353 1.0 -0.32684482815417504 0.6085687466072897 -0.3873224077931496 1.0 -0.31146042710874033 0.4904252427679915
-0.36291949161103304 1.0 -0.4327612331655025 0.5053057961791738 -0.2582746612594463 1.0 -0.42571777605592237 0.4879122619451607
0.007518877905619753 1.0 -0.2298120978998719 0.41523064200696613 -0.029804240182639608 0.6908328157616279 -0.5117337258972628 0.8373501013778041
0.07942627678521896 0.725479566026227 -0.48413519551381934 0.6818275602190416 0.013604581918231468 0.6464185026522346 -0.5012550343034715 0.6469882362730119

rewards f8 [30, 1]
00000000: a823 d9f1 71e7 ba3f 8add 53ac 6d9d ba3f
00000010: b97e ba40 e008 ba3f dcd2 b6ac f94d b93f
00000020: 94a4 7d77 0c70 b83f a3b1 11db 47fa b73f
00000030: f80b 0990 64df b83f d6de e073 8008 bb3f
00000040: 2f28 548f 756e be3f 5d63 3b73 3347 c13f
00000050: 0082 8279 bc06 c33f f464 3585 b626 dd3f
00000060: 1b4e ea9a d378 f03f 639a 6c45 bbc4 f73f
00000070: ac2b efaa e9de 1c40 607d 6825 949a 2240
00000080: 6022 e67f 603f 2440 31b2 7f68 2636 2340
00000090: 4276 75fe 7f7b 1d40 4a43 f0da a490 1e40
000000a0: b5ad 9580 7e37 2040 c0cb e996 cb9e 2140
000000b0: 2a2c a8a5 977b 2340 ae58 d79a cdbb 2540
000000c0: 4c15 34a7 bc2b 2840 bf90 ac55 cdac 2a40
000000d0: e1b4 a816 1bfa 2c40 1003 87dd a0a2 2e40
000000e0: 764d ec75 916d 2f40 0000 0000 0000 3440
0.10509407190796927 0.10396466691223885 0.1016979368237071 0.09884605852750944 0.09545972745185544 0.09366273020140752 0.0971587039612557 0.10559847668707376
0.11887297391163608 0.13498538137971652 0.14864307339759364 0.4554878521790464 1.0294986773850556 1.4855301582225813 7.217688246581854 9.30191151524076
10.1237831085611 9.605761781299494 7.370605445784863 7.641253872789841 8.108387010833079 8.810147014655627 9.74139135053527 10.866803015506175
12.085423684222995 13.337504079165567 14.488487918943465 15.317633555155709 15.714000401587992 20.0

discounts f8 [30]
00000000: 0000 0000 0000 f03f 0000 0000 0000 f03f
00000010: 0000 0000 0000 f03f 0000 0000 0000 f03f
00000020: 0000 0000 0000 f03f 0000 0000 0000 f03f
00000030: 0000 0000 0000 f03f 0000 0000 0000 f03f
00000040: 0000 0000 0000 f03f 0000 0000 0000 f03f
00000050: 0000 0000 0000 f03f 0000 0000 0000 f03f
00000060: 0000 0000 0000 f03f 0000 0000 0000 f03f
00000070: 0000 0000 0000 f03f 0000 0000 0000 f03f
00000080: 0000 0000 0000 f03f 0000 0000 0000 f03f
00000090: 0000 0000 0000 f03f 0000 0000 0000 f03f
000000a0: 0000 0000 0000 f03f 0000 0000 0000 f03f
000000b0: 0000 0000 0000 f03f 0000 0000 0000 f03f
000000c0: 0000 0000 0000 f03f 0000 0000 0000 f03f
000000d0: 0000 0000 0000 f03f 0000 0000 0000 f03f
000000e0: 0000 0000 0000 f03f 0000 0000 0000 f03f
1.0 1.0 1.0 1.0 1.0 1.0 1.0 1.0
1.0 1.0 1.0 1.0 1.0 1.0 1.0 1.0
1.0 1.0 1.0 1.0 1.0 1.0 1.0 1.0
1.0 1.0 1.0 1.0 1.0 1.0

skills f8 [30]
00000000: 0000 0000 0000 0000 0000 0000 0000 0000
00000010: 0000 0000 0000 0000 0000 0000 0000 0000
00000020: 0000 0000 0000 0000 0000 0000 0000 0000
00000030: 0000 0000 0000 0000 0000 0000 0000 0000
00000040: 0000 0000 0000 0000 0000 0000 0000 0000
00000050: 0000 0000 0000 0000 0000 0000 0000 0000
00000060: 0000 0000 0000 0000 0000 0000 0000 f03f
00000070: 0000 0000 0000 f03f 0000 0000 0000 f03f
00000080: 0000 0000 0000 f03f 0000 0000 0000 f03f
00000090: 0000 0000 0000 f03f 0000 0000 0000 f03f
000000a0: 0000 0000 0000 f03f 0000 0000 0000 f03f
000000b0: 0000 0000 0000 f03f 0000 0000 0000 f03f
000000c0: 0000 0000 0000 f03f 0000 0000 0000 f03f
000000d0: 0000 0000 0000 f03f 0000 0000 0000 f03f
000000e0: 0000 0000 0000 f03f 0000 0000 0000 0040
0.0 0.0 0.0 0.0 0.0 0.0 0.0 0.0
0.0 0.0 0.0 0.0 0.0 1.0 1.0 1.0
1.0 1.0 1.0 1.0 1.0 1.0 1.0 1.0
1.0 1.0 1.0 1.0 1.0 2.0

successes f8 [30]
00000000: 0000 0000 0000 0000 0000 0000 0000 0000
00000010: 0000 0000 0000 0000 0000 0000 0000 0000
00000020: 0000 0000 0000 0000 0000 0000 0000 0000
00000030: 0000 0000 0000 0000 0000 0000 0000 0000
00000040: 0000 0000 0000 0000 0000 0000 0000 0000
00000050: 0000 0000 0000 0000 0000 0000 0000 0000
00000060: 0000 0000 0000 0000 0000 0000 0000 0000
00000070: 0000 0000 0000 0000 0000 0000 0000 0000
00000080: 0000 0000 0000 0000 0000 0000 0000 0000
00000090: 0000 0000 0000 0000 0000 0000 0000 0000
000000a0: 0000 0000 0000 0000 0000 0000 0000 0000
000000b0: 0000 0000 0000 0000 0000 0000 0000 0000
000000c0: 0000 0000 0000 0000 0000 0000 0000 0000
000000d0: 0000 0000 0000 0000 0000 0000 0000 0000
000000e0: 0000 0000 0000 0000 0000 0000 0000 f03f
0.0 0.0 0.0 0.0 0.0 0.0 0.0 0.0
0.0 0.0 0.0 0.0 0.0 0.0 0.0 0.0
0.0 0.0 0.0 0.0 0.0 0.0 0.0 0.0
0.0 0.0 0.0 0.0 0.0 1.0
