metaworld_data/metaworld_data/push/train/20240503T210627_28_b7a0_success.npz (npz, 54925 bytes, 5 tensors)

actions f8 [28, 4]
0	0xbfe41d981e1a5eee	-0.6286125743817743
1	0x3fee28031283e9c6	0.942384277498882
2	0x3fca5c352f068124	0.20593895717775823
3	0xbfba0b48b232c18d	-0.10173467970412826
4	0xbfe5cac534e9ef68	-0.6810022386048162
5	0x3fe9020cefb9c578	0.7815003091947537
6	0x3fd42fa395973154	0.31540765388924297
7	0xbfbb3f55f4cefadf	-0.10643517710466764
8	0xbfe891f9505ad6f0	-0.7678190774374496
9	0x3fe59e4bc313803a	0.675573235519557
10	0xbf805876568442b0	-0.007981228366163634
11	0x3fa25e8b7349267f	0.03587756902977634
12	0xbfe82494cad4da43	-0.7544654809524406
13	0x3fddd22a0faa2900	0.4659524109816999
14	0x3fb708319fa3db73	0.08996877810919361
15	0xbfac7caf0eba0ed8	-0.05563876204271673
16	0xbfdc7c510897cbd5	-0.44508767928271925
17	0x3fe348b6b263908e	0.6026261791380578
18	0x3fc53e9dbcf79f76	0.1659733936969549
19	0xbfa9288cc1be5008	-0.04913749566108555
20	0xbfca3f9d2b874234	-0.2050663435498038
21	0x3fcda9de00ddcdaf	0.2317464355688634
22	0x3fc5f4653dd3a139	0.17152085799103547
23	0xbf8dcbf588212c2d	-0.01454917737659941
24	0xbfc2b5b0580cf994	-0.14616970347738045
25	0x3fd3e5d318d5317d	0.310902380228775
26	0x3fd28affe4994726	0.28973386119933975
27	0xbfab4995ad01d6d5	-0.05329578148750406
28	0xbfb401b58fe715fe	-0.0781510807347203
29	0x3fd413a87aba7e84	0.3136998365898551
30	0x3f59d63cea767a40	0.0015769572145029193
31	0x3fb68d926568c810	0.08809771514714293
32	0x3fb3ab27b52aa288	0.07683036969195645
33	0x3fd26e60f91fd156	0.287986987386167
34	0xbff0000000000000	-1.0
35	0x3fb7e237232109b3	0.09329552276270796
36	0xbfb56d3c0f1f3aae	-0.08369803780736149
37	0x3fc29ccd85a6a658	0.1454102423279433
38	0xbff0000000000000	-1.0
39	0xbfcd9b39cce50bcd	-0.23129961495041443
40	0x3f9d908cb8b7e0d5	0.02887172582083582
41	0x3faf163d1eda5ff2	0.06071654321311816
42	0xbff0000000000000	-1.0
43	0xbfbe622969072baa	-0.11868532957229996
44	0x3fbcac69126976b1	0.11200577449332162
45	0x3fb4c49ddbb08748	0.08112513173594238
46	0xbff0000000000000	-1.0
47	0x3fa3b92d157c01bb	0.0385221565939022
48	0x3f80f2bd70f69871	0.008275489816537114
49	0x3f9761070c07d3d3	0.022831068143165666
50	0xbff0000000000000	-1.0
51	0x3fac32baeaac8c68	0.055074540278177875
52	0x3fc525e9d5e73eed	0.1652195257615782
53	0x3fb6c07cb463dc64	0.08887462047629097
54	0xbff0000000000000	-1.0
55	0xbf46e53d9cc45b1c	-0.0006987143365531942
56	0x3fae7047c1b226d0	0.05945038070156061
57	0xbfbe3b4b6772df77	-0.11809226298907825
58	0xbfe9a20320dae1fa	-0.8010268823337008
59	0xbfb917d3f4f23db5	-0.0980198357594791
60	0xbfb6b4ad11b39306	-0.08869439775623897
61	0xbfb05163d1aef553	-0.06374191159462343
62	0xbfe87b4ae4b8dd54	-0.7650503604153678
63	0xbfac7c89f0a9da75	-0.05563765585695971
64	0xbfc66a172b2353cc	-0.17511262518260506
65	0xbfc5399921b7ba0c	-0.16582025667544575
66	0xbfe470c2b6cc5f22	-0.6387647218971078
67	0x3fdb3480b468fda8	0.4250795137231429
68	0x3fa8289482f733d0	0.04718460177136985
69	0xbfcc71f85711d195	-0.22222809077687758
70	0xbfdc87319603900d	-0.4457515683154732
71	0x3fe58d8ff4a6b88c	0.6735305574745936
72	0xbf9e19138fcabcd4	-0.029392533923496014
73	0xbfc03ad8cc269050	-0.12679586380284258
74	0xbfd0ec0a9c3a7a83	-0.2644068265598564
75	0x3fe020ef992809c6	0.5040204993568345
76	0xbfc2a53f9d9a4da6	-0.1456679839653649
77	0x3fb249ded8e35db3	0.07143967433090985
78	0xbfd2cbac5d1ddf0d	-0.29368123143602604
79	0x3fe3677481780714	0.6063787964523919
80	0x3febdfb73fb2eba6	0.8710590595359136
81	0x3ff0000000000000	1.0
82	0xbfd72ca740ad7095	-0.36210042301332496
83	0x3fdb9dd05439d7f2	0.43150718903723295
84	0x3fed2aaa4f908c65	0.9114581636425895
85	0x3ff0000000000000	1.0
86	0xbfd6ad3cfca59b6a	-0.35432362244175997
87	0x3fdbc1b39adfe120	0.43369760632005416
88	0x3fed09dee6e4b88e	0.9074549207341691
89	0x3ff0000000000000	1.0
90	0xbfd4c263c7ec170c	-0.3243646099439139
91	0x3fdca8b773d548d4	0.4477976447279961
92	0x3fe6a8e8b6611377	0.7081187784284414
93	0x3fee93e347c0bf35	0.955552711622636
94	0xbfd5d0a336feb789	-0.3408592259464674
95	0x3fe98071fc6a306b	0.7969293527580822
96	0x3fe451a651955384	0.6349670022415101
97	0x3feb68aba94c2d67	0.8565271669953461
98	0xbfd0412ffa832af6	-0.25397872413729716
99	0x3fde081a6ed58e2b	0.46924458335544966
100	0x3fd157a0a48fdd48	0.27097335882668405
101	0x3fed6a13eab7e03e	0.9191989502278444
102	0xbfd5cc6e1a4f202a	-0.3406024224209455
103	0x3fe44b6e58e7ac10	0.634207891123312
104	0x3fcefce948a0e494	0.24209323927224047
105	0x3fe7b1fe52ec8647	0.7404777164085282
106	0xbfd34cc537b70bab	-0.30156069222374055
107	0x3fe358269c0a1143	0.6045105979579052
108	0xbfc7baf6c05d0d17	-0.18539318459270568
109	0x3fc6e1a2f9e9a752	0.17876088335770618
110	0x3ff0000000000000	1.0
111	0x3fe80273355e1d38	0.7502990763031567

rewards f8 [28, 1]
0	0x3fbb0c476c7d0e80	0.10565611265797692
1	0x3fbb5081ea678dce	0.10669719670072839
2	0x3fbbb5bd6ef2b30e	0.1082418819302797
3	0x3fbbcce748f7494b	0.10859532863040504
4	0x3fbbd482ece1863c	0.10871141703821591
5	0x3fbc88698fd1b03a	0.11145648728569393
6	0x3fbbe0bd10fc0264	0.108897987982354
7	0x3fbafda836a8f719	0.1054329999396625
8	0x3fbaae7d16c9e6e6	0.10422498518337484
9	0x3fbbc71b42d7a444	0.10850687391179387
10	0x3fbe262b9d70bdc4	0.11776993364104898
11	0x3fc08fc54bc44f12	0.1293875331835968
12	0x3fdac2d0f8bc43bb	0.41814064302985415
13	0x3fe2a7fd1a10d340	0.5830064305397187
14	0x3fddfd7e3d1f60db	0.4685969921970476
15	0x3fc8208424dc35ac	0.18849231529058608
16	0x3fc9dd3be4b8eed4	0.20206402462087303
17	0x40224fd227afacbb	9.155900230593366
18	0x4023e74914d41b7d	9.951729441539777
19	0x4024ae6f2f8deafe	10.340692030023543
20	0x4023239d0bddf444	9.569557543605818
21	0x40215455234e8d5f	8.664712050761123
22	0x40205321b18d94b1	8.162366436512771
23	0x40225c2995ae688f	9.18000476602563
24	0x4025bb53fd91e378	10.86587517171732
25	0x402a070ba9c38d40	13.013760857697548
26	0x402dc582588adf9a	14.88576008506043
27	0x4031cb70495ce670	17.79468210714407

discounts f8 [28]
0	0x3ff0000000000000	1.0
1	0x3ff0000000000000	1.0
2	0x3ff0000000000000	1.0
3	0x3ff0000000000000	1.0
4	0x3ff0000000000000	1.0
5	0x3ff0000000000000	1.0
6	0x3ff0000000000000	1.0
7	0x3ff0000000000000	1.0
8	0x3ff0000000000000	1.0
9	0x3ff0000000000000	1.0
10	0x3ff0000000000000	1.0
11	0x3ff0000000000000	1.0
12	0x3ff0000000000000	1.0
13	0x3ff0000000000000	1.0
14	0x3ff0000000000000	1.0
15	0x3ff0000000000000	1.0
16	0x3ff0000000000000	1.0
17	0x3ff0000000000000	1.0
18	0x3ff0000000000000	1.0
19	0x3ff0000000000000	1.0
20	0x3ff0000000000000	1.0
21	0x3ff0000000000000	1.0
22	0x3ff0000000000000	1.0
23	0x3ff0000000000000	1.0
24	0x3ff0000000000000	1.0
25	0x3ff0000000000000	1.0
26	0x3ff0000000000000	1.0
27	0x3ff0000000000000	1.0

skills f8 [28]
0	0x0000000000000000	0.0
1	0x0000000000000000	0.0
2	0x0000000000000000	0.0
3	0x0000000000000000	0.0
4	0x0000000000000000	0.0
5	0x0000000000000000	0.0
6	0x0000000000000000	0.0
7	0x0000000000000000	0.0
8	0x0000000000000000	0.0
9	0x0000000000000000	0.0
10	0x0000000000000000	0.0
11	0x0000000000000000	0.0
12	0x0000000000000000	0.0
13	0x0000000000000000	0.0
14	0x0000000000000000	0.0
15	0x0000000000000000	0.0
16	0x3ff0000000000000	1.0
17	0x3ff0000000000000	1.0
18	0x3ff0000000000000	1.0
19	0x3ff0000000000000	1.0
20	0x3ff0000000000000	1.0
21	0x3ff0000000000000	1.0
22	0x3ff0000000000000	1.0
23	0x3ff0000000000000	1.0
24	0x3ff0000000000000	1.0
25	0x3ff0000000000000	1.0
26	0x3ff0000000000000	1.0
27	0x4000000000000000	2.0

successes f8 [28]
0	0x0000000000000000	0.0
1	0x0000000000000000	0.0
2	0x0000000000000000	0.0
3	0x0000000000000000	0.0
4	0x0000000000000000	0.0
5	0x0000000000000000	0.0
6	0x0000000000000000	0.0
7	0x0000000000000000	0.0
8	0x0000000000000000	0.0
9	0x0000000000000000	0.0
10	0x0000000000000000	0.0
11	0x0000000000000000	0.0
12	0x0000000000000000	0.0
13	0x0000000000000000	0.0
14	0x0000000000000000	0.0
15	0x0000000000000000	0.0
16	0x0000000000000000	0.0
17	0x0000000000000000	0.0
18	0x0000000000000000	0.0
19	0x0000000000000000	0.0
20	0x0000000000000000	0.0
21	0x0000000000000000	0.0
22	0x0000000000000000	0.0
23	0x0000000000000000	0.0
24	0x0000000000000000	0.0
25	0x0000000000000000	0.0
26	0x0000000000000000	0.0
27	0x3ff0000000000000	1.0
