rlbench_data/rlbench_data/take_umbrella_out_of_umbrella_stand/train/20240914T092656_249_b9cf_failure.npz (npz, 433258 bytes, 1 tensors)

actions f4 [249, 4]
00000000: 0000 0000 0000 0000 0000 0080 0000 0080
00000010: b5a6 82bf e459 713f d052 d2bc d0ba 8bbf
00000020: 6c7f 8ebf 10c4 6c3f 6dcc 053f 0606 88bf
00000030: 8177 6bbf dd72 473f 605d 7d3f 3e0c 5cbf
00000040: 378a a2bf 5ca0 3e3f bc62 1ebe e831 83bf
00000050: 2260 80bf 3827 e03f b100 c43e 5468 74bf
00000060: 5f95 57bf c30d 873f 980b b43d 021d 5abf
00000070: d8a6 7fbf cd6b 6a3f a020 1bbf 3365 91bf
00000080: 5451 71be 26fd 973e 9c0b 40bf 4438 7abf
00000090: f63e 81be a265 6d3f bc86 d4be 6f99 8cbf
000000a0: e1ed 9cbe 9c37 5a3f 5b07 713f f39b 74bf
000000b0: ae2d 22bf 467f 7d3f 9507 4c3f a2ec 7fbf
000000c0: 33e8 463e 9430 5a3f 4868 453f bb66 4cbf
000000d0: 3e54 723d 65ae 943f 8929 e7bd 070a 67bf
000000e0: 8046 39bc ae5d e13f 8208 233f 1164 8fbf
000000f0: a876 7d3d 6a5b c93e 4fee 41bf 4886 71bf
00000100: afcd cb3d 8e50 a03f 0c27 6abf 7a87 8dbf
00000110: 5ed9 653f 23bc 783f b244 e2be 2c80 6fbf
00000120: beb0 18bf 4af2 863f 5ca4 7cbf 6986 90bf
00000130: 16a7 6c3f 2a32 a93f 1d79 83bf 5c9f 57bf
00000140: 35a0 6a3f 4d97 203f a968 64bf 763b 8abf
00000150: f6a8 11be 5e80 b03f b2e3 c2bf 601b 87bf
00000160: 1f71 9e3e f8e6 983f e052 1bbf 1546 81bf
00000170: 8f14 24bf 412d 383f 3391 8cbf c563 92bf
00000180: 4bfd 7fbf 93dd a93f 9a08 46bf 14ce 8abf
00000190: 34c0 b8be 4e14 1d3f 84e5 3abf f838 8ebf
000001a0: 98c8 0abf 00ef a93f 496f 66bf 81c3 8bbf
000001b0: f676 04bf 1180 713f 74fd 17bf 35e3 7bbf
000001c0: a415 b5be 71e2 6e3f 2a36 a8be d34c 7cbf
000001d0: 8600 48be 2676 2d3f b2b5 c5bf 08fc 95bf
000001e0: 2187 253f 849d 903f 9cd8 acbf 95fe 88bf
000001f0: 2a87 703f 9b7d 913f 8e16 39bf 62e7 7dbf
00000200: 516c 4e3f 5606 9b3f 4590 85bf 878b 74bf
00000210: 207d b03e 2ff0 c33f a872 7fbf fe59 80bf
00000220: b6db 8abf 5b08 6e3f 8c76 7fbe d5c6 6ebf
00000230: 5d2b 8dbf bdc5 643f d00f 4ebf fd33 76bf
00000240: 6006 93bf 5000 873f da3a 5dbf 5863 78bf
00000250: 2a6d 86bf e2c7 9a3f d94a 0ebf 340d 71bf
00000260: abeb 69bf 077e 913f 1cd0 62bf ea1e 88bf
00000270: fe81 7cbf ce3b 273f f4ad 91bf 3802 64bf
00000280: 74d6 91bf 28af 983f 803b 90be 3969 9abf
00000290: 12af 68bf 373e 573f beb4 1dbf 8a20 57bf
000002a0: 3e34 4ebf d499 873f 4b6c 92bf 1fa8 8bbf
000002b0: 663d 78bf 1199 3d3f c58e 71bf 7f31 86bf
000002c0: 297c c8bf cb11 a63f e6a7 84bf e866 98bf
000002d0: eb8e 63bf f249 3b3f 1243 7ebf 4f5c 90bf
000002e0: d693 88bf 161e 9e3e 971d 9abf 0d63 69bf
000002f0: 0660 24bf d9c3 12bf ae18 63bf d5ee 7fbf
00000300: 68b0 a1bf d609 223f 8ccc d1be 114d 9abf
00000310: bbcd 6bbf 80f9 b5be 4600 25bf 62e3 63bf
00000320: 1a96 a3bf b314 4ebf 8ef5 88bf c7fc 96bf
00000330: 6bd0 67bf 5852 263e b0e8 88bf 2a08 8dbf
00000340: 7393 92bf 868d 87bf b16a 86bf c059 6abf
00000350: ab47 69bf 9899 4cbf 2abd dbbf 68eb 3cbf
00000360: 00fa 8dbf 8d24 36bf b4e6 95bf ee90 2fbf
00000370: 272b 89bf 33f6 8ebf 713c 24bf 40cc 6abf
00000380: 8a34 bebf b055 43bf 0ef2 d7be 3a48 1cbf
00000390: 7740 99bf bc00 3abf 91d2 9dbf f585 3ebf
000003a0: 2a50 91bf 3783 45bf c070 98be ace7 dcbe
000003b0: 5c9d 67bf 1053 6bbf 7e67 afbf a08d b3be
000003c0: 2e07 84bf ce0a 6abf e6ba 1bbf ac82 313f
000003d0: cde6 6dbf 0c1d 9ebe a792 1bbf 7316 5cbf
000003e0: 06f7 82bf 459e 87bf 380a 85bf 13f0 1f3f
000003f0: 0b0a 39bf 34bf 53bf 29d3 4abf 1707 c93e
0.0 0.0 -0.0 -0.0 -1.0207125 0.9427779 -0.025674254 -1.0916386
-1.1132636 0.9248667 0.52265054 -1.0626838 -0.91979223 0.7790964 0.98970604 -0.8595618
-1.269843 0.7446344 -0.15467352 -1.0249605 -1.0029337 1.7511969 0.38281778 -0.9547169
-0.842123 1.0551075 0.08791274 -0.8520051 -0.9986396 0.9157074 -0.60596657 -1.1359009
-0.2356618 0.29685324 -0.75017715 -0.97742105 -0.25243348 0.92733204 -0.41509044 -1.0984324
-0.30650237 0.85241103 0.9415185 -0.9555046 -0.6335095 0.9902233 0.7969907 -0.9997045
0.19424514 0.85230374 0.77112246 -0.79844254 0.05916237 1.1615721 -0.11287219 -0.90249676
-0.011308312 1.7606714 0.63684857 -1.1202413 0.061880738 0.39327556 -0.75754255 -0.9434552
0.099513404 1.2524583 -0.9146583 -1.1056969 0.897848 0.97162074 -0.44193035 -0.9355495
-0.5964469 1.0542691 -0.9868829 -1.1291019 0.9244245 1.3218434 -1.0271336 -0.8422754
0.91650707 0.62730867 -0.892222 -1.0799396 -0.1422461 1.3789175 -1.5225737 -1.0555229
0.3094568 1.1945486 -0.6067333 -1.0099512 -0.6409387 0.7194405 -1.0981811 -1.1436697
-0.9999587 1.3270744 -0.77356875 -1.084414 -0.3608414 0.6135911 -0.73006463 -1.1111135
-0.5421233 1.3276062 -0.9001356 -1.0919038 -0.5174402 0.9433604 -0.59371114 -0.98393565
-0.35368073 0.9331427 -0.32853824 -0.98554724 -0.1953145 0.67758405 -1.5446074 -1.1717539
0.64659315 1.129807 -1.3503604 -1.0702692 0.93956244 1.1366457 -0.7230004 -0.9918119
0.8063403 1.2111309 -1.0434653 -0.955254 0.34470463 1.5307673 -0.99784327 -1.0027463
-1.08483 0.929815 -0.24947566 -0.93272144 -1.1028858 0.89364225 -0.8049288 -0.9617308
-1.148632 1.054697 -0.86417925 -0.97026587 -1.0502064 1.2092249 -0.5558296 -0.9416077
-0.91375226 1.1366585 -0.885988 -1.0634434 -0.9863585 0.6532563 -1.1381211 -0.89065886
-1.1393571 1.1928453 -0.28170395 -1.2063361 -0.90892136 0.8407931 -0.61603916 -0.84034026
-0.80548465 1.059382 -1.1439298 -1.0910681 -0.96968687 0.74061686 -0.94358474 -1.0483855
-1.5662891 1.297418 -1.0363739 -1.1906404 -0.8888995 0.73159707 -0.9932109 -1.127817
-1.0670116 0.3088233 -1.204028 -0.91166764 -0.6420902 -0.5733009 -0.88709533 -0.99973804
-1.263196 0.6329626 -0.4097637 -1.2054769 -0.92110795 -0.35541916 -0.6445354 -0.89018834
-1.2780182 -0.80500335 -1.0699937 -1.1795892 -0.90552396 0.16242349 -1.069601 -1.1018116
-1.1451248 -1.0590065 -1.050131 -0.915432 -0.9112498 -0.79921865 -1.7167103 -0.737967
-1.1091919 -0.7114952 -1.171103 -0.6858052 -1.0716294 -1.1168884 -0.64154726 -0.9171791
-1.4859784 -0.76302624 -0.4217686 -0.6104771 -1.1972798 -0.7265737 -1.2329885 -0.7442315
-1.1352589 -0.7715334 -0.2977352 -0.43145502 -0.90474486 -0.9192362 -1.3703458 -0.3506899
-1.0314691 -0.91422737 -0.6083206 0.69340014 -0.929303 -0.30881536 -0.6077065 -0.85971755
-1.0231636 -1.0595175 -1.0393744 0.624757 -0.7228095 -0.8271363 -0.79228455 0.39263222
