rlbench_data/rlbench_data/take_umbrella_out_of_umbrella_stand/train/20240914T182552_113_b603_failure.npz (npz, 706257 bytes, 1 tensors)

actions f4 [113, 4]
000000 00 00 00 80 00 00 00 80 00 00 00 00 00 00 00 00
       -0.0 -0.0 0.0 0.0
000010 72 5a 18 3f 7d 69 53 bf f9 e9 6c bf 81 ad 5d bf
       0.5951301 -0.8258284 -0.92544514 -0.8659287
000020 9a 74 96 3f f4 27 5a bf 75 b8 6a bf bb 49 37 bf
       1.1754334 -0.85217214 -0.9168771 -0.7159688
000030 34 4f 81 3f f6 22 5c bf 4e 38 3e bf b4 41 0c bf
       1.0102296 -0.85990846 -0.74304664 -0.54787755
000040 c8 b7 4c 3f 39 17 65 bf 83 2e 8a bf 53 d4 a9 bf
       0.7996793 -0.8948856 -1.0795444 -1.3267921
000050 ef 92 7b 3f 07 e2 98 bf 0b 2c 57 bf 0b e7 5e bf
       0.9827108 -1.1943978 -0.8405158 -0.87071294
000060 fb 9c 62 3f 21 af 67 bf 17 70 3b bf d2 34 83 bf
       0.88520783 -0.905016 -0.7321791 -1.0250494
000070 4c d2 64 3f 7c b7 7a bf bb e9 87 bf cc c4 19 bf
       0.8938339 -0.97936225 -1.0618204 -0.60065913
000080 97 56 8b 3f 83 ab 93 bf 80 c1 4d bf cb 9c 79 bf
       1.08858 -1.1536716 -0.8037338 -0.9750487
000090 4f 09 8c 3f e1 b3 3a bf 72 a8 62 bf ac 9a 8a bf
       1.0940341 -0.72930723 -0.8853828 -1.0828452
0000a0 5b 08 5a 3f 19 46 50 3f b3 14 6d bf a3 d2 85 bf
       0.85169 0.8135696 -0.9260971 -1.0454906
0000b0 2e 2f 69 3f 4c fc 9e 3f ea 7e 90 bf 5f fc 4f be
       0.91087615 1.2420745 -1.1288731 -0.20311116
0000c0 4a 6e 85 3f 17 6c 67 3f 61 09 72 bf 71 36 36 bf
       1.0424283 0.90399307 -0.9454556 -0.7117682
0000d0 d5 46 80 3f b4 84 62 3f 74 12 66 bf 9a 65 72 bf
       1.0021616 0.8848374 -0.8987191 -0.9468628
0000e0 c4 37 68 3f 5e 0f 41 3f 7c 84 4c bf 1b bc a8 3e
       0.9071009 0.75414073 -0.79889655 0.32956013
0000f0 d2 5a 49 3f 74 4c 83 bf 5e 62 67 bf e9 a9 53 bf
       0.78654206 -1.0257707 -0.9038447 -0.8268114
000100 d0 31 7e 3f 5b 59 24 bf 8d 87 70 bf 12 a4 d1 be
       0.9929476 -0.64198846 -0.93956834 -0.40945488
000110 99 4e 7d 3f 08 4b a8 3e 42 47 84 bf 27 7f 8c 3f
       0.98948056 0.32869744 -1.0334246 1.0976304
000120 3a 1b 9d 3f 5c ad c9 3e f7 ae 72 bf 41 7b 75 3f
       1.2273934 0.39390075 -0.94798225 0.95891196
000130 bd 33 85 3f c8 ac cd 3e 0b 22 8a bf 45 25 78 3f
       1.0406414 0.40170884 -1.0791639 0.9693187
000140 99 e0 9f 3f 73 f7 82 bf bc 0a 8f bf 97 45 10 3f
       1.2490417 -1.0231766 -1.1175151 0.56356186
000150 48 ee ae bf 89 17 3d bf ed ae 71 bf fc 6e 73 3e
       -1.3666468 -0.73864037 -0.9440754 0.23772806
000160 6e 86 3b 3f f3 99 1d bf 95 7e 4f bf 62 ec 7b be
       0.73252 -0.6156303 -0.81052524 -0.24601892
000170 2f 26 13 bf 87 77 86 bf 6f b7 7c bf 4c cd 82 bf
       -0.5748014 -1.0505227 -0.987174 -1.0218902
000180 63 ec a9 be f2 ff ea be 45 c8 7b bf c4 36 54 bf
       -0.3318816 -0.45898396 -0.9835246 -0.82896066
000190 55 c5 9f 3d 50 ae 27 bf f2 e3 6d bf d7 b1 69 bf
       0.0780131 -0.65500355 -0.9292594 -0.9128699
0001a0 a0 e4 81 bf cb 88 23 bf d0 2e 8e bf fe a8 53 bf
       -1.0147896 -0.63880605 -1.1108036 -0.82679737
0001b0 46 47 17 3f 47 06 6b bf c4 3e 94 bf d0 0a b0 bf
       0.5909313 -0.91806453 -1.1581655 -1.37533
0001c0 a0 7b 8b 3f 84 94 38 bf e9 d1 81 bf dc c0 63 bf
       1.0897102 -0.72101617 -1.0142184 -0.88966155
0001d0 e0 db 9e 3f 5c ae 28 3f dc 0c a6 bf df 40 5f bf
       1.241085 0.6589105 -1.2972674 -0.8720836
0001e0 3d 19 96 3f ae bd a7 bf c5 c5 7d bf ca 8a 83 bf
       1.1726452 -1.3104761 -0.991299 -1.027673
0001f0 33 9b 68 3f 34 e7 6c 3f 22 f1 74 bf b2 f3 77 bf
       0.90861815 0.9254029 -0.9568044 -0.96856225
000200 4a 48 83 3f e7 ea 90 bf c1 c5 69 bf c8 be 6d bf
       1.0256436 -1.1321687 -0.91317374 -0.92869234
000210 ef 19 5b 3f 3c 14 7c bf 6f 63 82 bf 2b 53 70 bf
       0.85586447 -0.98468375 -1.0186595 -0.93876904
000220 ed 01 86 3f 13 b1 d5 3e 2c 9a 71 bf 4c cc 7f bf
       1.0469338 0.4173666 -0.9437587 -0.9992111
000230 27 f7 7f 3f 2e 92 84 3f 98 d0 89 bf 64 cb 6e bf
       0.999865 1.035711 -1.0766783 -0.932791
000240 70 2f 32 3f 39 b5 38 3f f6 2e e5 3e 02 40 78 bf
       0.69603634 0.72151524 0.4476239 -0.9697267
000250 ce 24 99 bf af e5 e2 3e 0e ff 95 3f c4 56 7c bf
       -1.1964357 0.4431586 1.1718462 -0.98569894
000260 9f 64 74 bf 64 a7 99 3f b4 13 78 3f fa de 56 bf
       -0.95466036 1.2004209 0.96905065 -0.83933985
000270 4e 97 81 bf 98 d6 ab bf aa f5 8a 3f 7a 86 db 3c
       -1.01243 -1.3424864 1.0856221 0.026797522
000280 eb 3c 7e bf 08 75 85 bf fb 8f a2 3f 07 f1 ad be
       -0.99311703 -1.042634 1.2700189 -0.33972952
000290 74 ce 92 bf 5e 0f a3 bf b2 26 33 3f b3 b7 7c be
       -1.1469254 -1.2739065 0.6998092 -0.2467945
0002a0 b2 81 77 bf 16 26 90 bf 6c 04 87 3f 85 49 72 be
       -0.96682274 -1.1261623 1.0548224 -0.23660858
0002b0 4f e5 87 bf 24 4e 88 bf 94 9f 8e 3f e4 2a e5 be
       -1.0616854 -1.0648847 1.1142449 -0.44759285
0002c0 6a 0d 01 bf 1d a7 42 bf f5 fc 14 3f 48 11 71 bf
       -0.50411093 -0.76036245 0.5819848 -0.94166994
0002d0 3a a5 61 bf e5 48 89 bf 40 12 b3 3e b9 90 3b bf
       -0.8814274 -1.0725371 0.3497486 -0.73267704
0002e0 01 91 1a 3f 58 93 8b bf 22 43 6b 3d 5f 32 73 bf
       0.6037751 -1.0904341 0.05743707 -0.94998735
0002f0 63 40 be 3e 40 4d 33 bf 68 54 17 3f e8 83 32 bf
       0.37158498 -0.7003975 0.5911317 -0.6973252
000300 98 be 0b 3f 66 2a 87 bf f0 8d 92 bf ea 1a 40 bf
       0.545877 -1.0559814 -1.1449566 -0.7504107
000310 e5 48 20 3f 15 d6 99 bf 71 75 10 3f 39 c8 87 bf
       0.6261123 -1.2018458 0.564292 -1.0607978
000320 a4 c0 93 3f be ec b1 3e 1e 9f 23 3e 32 ae 8e bf
       1.1543164 0.34750932 0.15978667 -1.114691
000330 ab e8 56 3f 25 29 8d bf 02 70 a3 be 5e 6e a0 bf
       0.83948773 -1.1028181 -0.31921393 -1.2533681
000340 15 bd 88 3f a6 92 c9 bd 86 d2 0b be 5c 15 7f bf
       1.0682703 -0.09842424 -0.13654527 -0.99641967
000350 a0 5e 6b 3f fe 30 3c 3f 8b 6e 38 3f bb d3 9b bf
       0.9194126 0.73512256 0.72043675 -1.217399
000360 c7 47 66 3f 65 be 40 be 5d 74 5a 3f 75 54 92 bf
       0.89953274 -0.1882263 0.85333806 -1.1432024
000370 0b 29 1b be e0 9a 9a bf 8f 36 f7 3e d6 31 83 bf
       -0.15152375 -1.2078514 0.48283812 -1.0249584
000380 c0 a1 29 3e 87 6f 88 3f 4e 85 d9 3e 7e bb 81 bf
       0.16565609 1.0659035 0.42484516 -1.0135343
000390 86 03 10 3f 68 78 3f bf 21 95 3f bf b3 85 74 bf
       0.56255376 -0.747931 -0.7483693 -0.9551651
0003a0 40 49 03 3e 4c 03 45 bf 84 d1 5b bf ff fc 71 bf
       0.12820911 -0.76958156 -0.8586657 -0.94526666
0003b0 5f 09 c1 3e 84 35 71 3e 6d 32 40 3f fc cb 68 bf
       0.37702462 0.23555571 0.75076944 -0.90936255
0003c0 6c fd 28 3f 50 0d 60 bf f2 41 89 3f a5 84 81 bf
       0.6601169 -0.87520313 1.072325 -1.0118605
0003d0 0e 46 57 3f a6 d0 86 bf 80 dc 0d 3e 03 60 72 bf
       0.8409127 -1.0532424 0.13853645 -0.9467775
0003e0 19 40 1e 3f 26 56 b9 be 66 60 81 bf b0 44 7c bf
       0.61816555 -0.3619854 -1.0107543 -0.9854231
0003f0 f9 2f 51 3e 90 4a 4f bc 75 d4 5e bf 51 05 91 bf
       0.20428456 -0.012652054 -0.87042934 -1.1329747
