rlbench_data/rlbench_data/take_umbrella_out_of_umbrella_stand/train/20240914T092710_249_b065_failure.npz (npz, 844411 bytes, 1 tensors)

actions f4 [249, 4]
0.0 -0.0 0.0 -0.0 -1.0120701 1.0543923 -0.9077654 -0.94689035
-1.0373282 1.0052434 -1.0600225 -1.0748242 -0.26096916 -0.07885373 -1.0660913 -0.9783073
-1.0524429 -0.8250903 -0.9280808 -1.0570834 0.8002552 -0.5274868 -0.91696644 -1.1757812
-0.6850257 0.64784664 -1.0514911 -0.9732936 -0.90115184 0.34023982 -1.2765111 -1.1740696
-0.6889217 1.1047566 -1.2603462 -0.86532533 -1.0505787 -0.19139235 -0.8672707 -0.71045995
-0.9802849 -0.886018 -1.015631 -0.5276872 -0.8736337 0.7848902 -0.8655976 0.7703247
-1.0018711 0.9789183 -0.7919686 -0.3400933 -0.9014585 -0.93412584 -1.1300551 0.25324386
-1.0931085 0.8437342 -0.9847685 -0.53683 0.6003812 0.32384792 0.02915451 -0.5135906
1.1122209 0.35626253 0.59243476 -0.00079222396 -0.11555007 1.1668805 -0.96915054 -0.3125155
0.9434672 -0.48623902 0.61344016 -0.77376586 0.022334993 0.83562356 -1.1003339 -0.9044201
0.9382981 -0.90846115 1.1436043 -0.9263717 -0.9266545 1.1084301 -0.8961924 -1.0462376
0.89757615 0.80443394 -0.44704527 -0.9745884 1.1443563 1.3011844 0.10115944 -0.7539396
0.97949266 0.37570712 0.2812548 0.11598123 0.8036329 1.0230348 -1.0072439 -0.43248302
0.8292772 0.78141624 0.88140166 -0.26251346 -0.8510181 -0.7796191 -0.5711969 -1.0594758
1.1667899 -0.9842511 0.33978683 -1.0214938 0.6407538 -1.3024268 0.7099447 -1.07102
1.0984975 -0.8486012 -0.7489887 -1.0479918 -0.244532 -0.7953718 0.90429294 -0.89480567
0.8484486 -0.8630166 0.7937837 -0.42948923 0.44853505 -0.11874026 -0.33784145 -0.17933956
-0.913468 -0.47762424 -0.7749412 -0.3118688 -0.122132175 -0.8461621 0.44572344 -0.52235836
0.9333997 -1.0707288 -0.24284492 -0.592201 0.7610675 -0.22638747 -0.61899483 -0.3739873
1.1299134 -0.3785404 -0.32604843 -0.8701796 0.6037047 0.751649 -0.99394214 -0.95758516
0.60720015 -0.34222457 0.32777455 -0.8965453 1.0179127 -0.7335119 0.31492215 -1.1286256
0.9925466 -0.2963024 -1.1766121 -1.0257279 0.91632783 0.95363384 -0.96834093 -0.9578113
0.33661807 0.79055715 -1.1254427 -1.1144307 1.1062526 0.8875813 -0.8751656 -0.77252054
1.3915985 0.9800925 -1.3795774 -1.0752789 1.0650339 0.78780425 -0.67602146 -0.94396996
1.1820787 0.6766006 -0.87509316 -0.94861305 0.9035796 1.1353769 -0.9652559 -1.1288147
0.7765782 0.41605675 -0.028288484 -1.0257463 1.0822597 1.0577586 -0.47161597 -0.8741545
1.0247333 1.0000358 -0.6643454 -0.85795194 1.0007617 1.3655959 0.8468168 -0.92986256
0.65855926 0.9063158 -0.70784354 -0.8861098 1.1927427 1.0357834 -1.5917974 -0.9778614
1.0040708 0.0050204396 -1.2118325 -1.0254223 1.0464385 1.0022026 -0.70115936 -1.1296425
1.1473234 0.74242955 -1.008837 -0.92505574 1.0598519 -0.9233154 -0.7184168 -0.9635265
1.0902503 0.045136787 -1.0204816 -1.1336409 1.1930064 -1.1780633 -0.65609765 -0.87514377
0.9937152 -0.39361477 0.3935624 -0.95721114 1.0140957 -1.0122147 0.5159381 -0.92853916
00000000: 0000 0000 0000 0080 0000 0000 0000 0080
00000010: 838b 81bf 54f6 863f 5063 68bf 6867 72bf
00000020: 2cc7 84bf d1ab 803f d1ae 87bf d793 89bf
00000030: c09d 85be 107e a1bd ae75 88bf 5972 7abf
00000040: 73b6 86bf 1e39 53bf b496 6dbf 824e 87bf
00000050: 86dd 4c3f 6009 07bf 50be 6abf 0080 96bf
00000060: d85d 2fbf 47d9 253f 4397 86bf c529 79bf
00000070: e3b1 66bf ea33 ae3e b764 a3bf ea47 96bf
00000080: 2c5d 30bf aa68 8d3f 0653 a1bf f685 5dbf
00000090: 5d79 86bf 5bfc 43be 7405 5ebf b4e0 35bf
000000a0: f4f3 7abf 13d2 62bf 3200 82bf 8216 07bf
000000b0: 75a6 5fbf 90ee 483f ce97 5dbf 0034 453f
000000c0: 503d 80bf 649a 7a3f 74be 4abf b620 aebe
000000d0: fcc5 66bf df22 6fbf a5a5 90bf 2ea9 813e
000000e0: fbea 8bbf f7fe 573f ca19 7cbf b16d 09bf
000000f0: 95b2 193f 65cf a53e 70d5 ee3c ac7a 03bf
00000100: 415d 8e3f 0b68 b63e cea9 173f 40ad 4fba
00000110: 84a5 ecbd 575c 953f 401a 78bf 0802 a0be
00000120: 1187 713f 52f4 f8be 6a0a 1d3f 8515 46bf
00000130: e0f7 b63c 6deb 553f bed7 8cbf 1388 67bf
00000140: 4e34 703f e990 68bf a061 923f b226 6dbf
00000150: 3b39 6dbf 0ae1 8d3f dd6c 65bf 1deb 85bf
00000160: 8dc7 653f 62ef 4d3f 1ee3 e4be a07e 79bf
00000170: 447a 923f 368d a63f ae2c cf3d 3002 41bf
00000180: 08c0 7a3f af5c c03e a100 903e 9187 ed3d
00000190: e3ba 4d3f cef2 823f 5eed 80bf 6a6e ddbe
000001a0: 834b 543f e50a 483f 8aa3 613f 2a68 86be
000001b0: 52dc 59bf 1e95 47bf f639 12bf e79c 87bf
000001c0: 5f59 953f e1f7 7bbf 8af8 ad3e 4fc0 82bf
000001d0: 7108 243f ecb5 a6bf f0be 353f 2f17 89bf
000001e0: 919b 8c3f ee3d 59bf b9bd 3fbf 9824 86bf
000001f0: 9966 7abe 7c9d 4bbf be7f 673f fc11 65bf
00000200: ed33 593f a8ee 5cbf 6935 4b3f 03e6 dbbe
00000210: 63a6 e53e 182e f3bd 8ef9 acbe caa4 37be
00000220: 0ad9 69bf 2a8b f4be 8c62 46bf 44ad 9fbe
00000230: 6f20 fabd 149e 58bf dd35 e43e 47b9 05bf
00000240: 48f3 6e3f a40d 89bf 57ac 78be 7c9a 17bf
00000250: 52d5 423f 1ed2 67be 7276 1ebf 437b bfbe
00000260: 01a1 903f 0cd0 c1be d2ef a6be 17c4 5ebf
00000270: 648c 1a3f 126c 403f fe72 7ebf 4d24 75bf
00000280: 7871 1b3f 0f38 afbe 11d2 a73e fe83 65bf
00000290: f74a 823f 70c7 3bbf 7a3d a13e ce76 90bf
000002a0: 8917 7e3f f3b4 97be 3a9b 96bf 0d4b 83bf
000002b0: 7694 6a3f 5921 743f 31e5 77bf 1f33 75bf
000002c0: 3459 ac3e f461 4a3f 820e 90bf aaa5 8ebf
000002d0: af99 8d3f 8738 633f da0a 60bf e8c3 45bf
000002e0: e61f b23f 58e7 7a3f fe95 b0bf bda2 89bf
000002f0: 0853 883f 8aad 493f be0f 2dbf 04a8 71bf
00000300: 5b4e 973f b235 2d3f 1b06 60bf 4ed8 72bf
00000310: fe50 673f 0854 913f 031b 77bf 007d 90bf
00000320: d4cd 463f 6405 d53e 40bd e7bc a84b 83bf
00000330: 7c87 8a3f a264 873f a677 f1be 97c8 5fbf
00000340: 762a 833f 2c01 803f 8a12 2abf bda2 5bbf
00000350: f618 803f d9cb ae3f fcc8 583f 790b 6ebf
00000360: 5797 283f 5004 683f 3c35 35bf 18d8 62bf
00000370: cbab 983f 8d94 843f 04c0 cbbf 2055 7abf
00000380: 6485 803f 8082 a43b 541d 9bbf 0a41 83bf
00000390: b2f1 853f 2d48 803f 2e7f 33bf 2098 90bf
000003a0: 7edb 923f dd0f 3e3f 9221 81bf 74d0 6cbf
000003b0: 3aa9 873f 665e 6cbf 2aea 37bf aca9 76bf
000003c0: 528d 8b3f 5ae1 383d 249f 82bf 251b 91bf
000003d0: 6fb4 983f c7ca 96bf 04f6 27bf 6c09 60bf
000003e0: 1f64 7e3f e087 c9be 0381 c93e ca0b 75bf
000003f0: e3cd 813f 4090 81bf 8514 043f beb4 6dbf
