rlbench_data/rlbench_data/take_umbrella_out_of_umbrella_stand/train/20240914T092655_249_b1a1_failure.npz (npz, 440197 bytes, 1 tensors)

actions f4 [249, 4]
00000000: 0000 0080 0000 0000 0000 0080 0000 0080
00000010: 7081 17bf 6e89 213f 8643 b8bf 469a 8dbf
00000020: e09b 7bbf a332 bd3f 912d 78bf 3fde 84bf
00000030: 2d33 84bf 8389 713f c781 86bf 5edf 71bf
00000040: 21d0 80bf 74e2 5f3f 9958 4bbf 1957 6dbf
00000050: 5b74 bfbf 1e3e 593f 6082 95bf 5395 64bf
00000060: 8840 e4be b7c7 973f cda8 7ebf b61c 82bf
00000070: 8837 98bf c8fc 943f 9a93 91bf 5dcb 99bf
00000080: 1e14 58bf 0a5f c33f 1edf 83bf ff9d 80bf
00000090: c1ca 8cbf 6453 f33e 7e2d 85bf 3985 76bf
000000a0: c5d1 47bf de31 843f d21a 86bf d21d 83bf
000000b0: 28db 93bf ea99 c23e c017 5fbf 06d6 87bf
000000c0: a689 a6bf 58e0 6c3f 3c67 a3bf 4d49 79bf
000000d0: c176 0fbf b451 a83f 8c80 59bf 517c 6fbf
000000e0: aa59 6abf 36be cc3f 9fc9 66bf 56e3 83bf
000000f0: 2e00 62bf b886 4e3f c1e4 6ebf 8a9e 97bf
00000100: d8d1 cbbf 7519 9d3f 276b a2bf f0f6 89bf
00000110: d0c2 f5be 89b4 8d3f da52 4bbf 421c 84bf
00000120: 1215 1bbf 00ed 2a3f 2ec7 59bf 63cf 84bf
00000130: e3d6 5abf 025d f43e c0d7 5cbf 96ad 74bf
00000140: 8c16 afbf 9f32 a83f dd92 a4bf c504 87bf
00000150: 47d3 7bbf aa87 3b3f 8428 7dbf 6fe2 86bf
00000160: 243e 84bf 52e5 7a3f 7ca2 79bf 8437 6fbf
00000170: d881 31bf 4421 a83f 092b 57bf e6da a7bf
00000180: 9138 a1bf 5c21 a23f ae15 3dbf d46b 9fbf
00000190: d12b 66bf 9c56 643f 364c 8ebf e359 89bf
000001a0: 40a0 51bf 1e52 ac3f 66d7 69bf f35a 87bf
000001b0: 6089 88bf 78ed 583f 489a 8dbf 28a0 5fbf
000001c0: 5d53 8bbf 50f5 3b3f 6fb3 57bf 817c 86bf
000001d0: 2725 8fbf 6f9a 213f fa2d 73bf 3952 69bf
000001e0: 2837 8fbf b530 4a3f 3aa1 89bf 95fc 6ebf
000001f0: 7a86 68bf 5047 763e 4f92 14bf 3b52 87bf
00000200: ca3f 86bf 2403 9f3f e062 0bbf 365f 83bf
00000210: 525b 9ebf ec22 b03f 7c55 f03d 67d2 7ebf
00000220: 491a 4bbf 25fe 893f add5 a2be 6ae2 86bf
00000230: d853 92bf 4f09 703f ae5a 62bf 1817 5ebf
00000240: 143d 6dbf 83b7 7e3f 3ac8 763e 2d7f 90bf
00000250: d8f1 8abf 86d7 863f 52bd 483e 774d 75bf
00000260: 3314 5dbf 7e94 453f 3187 0bbf 38c8 5fbf
00000270: 3245 43bf df53 743f 1077 95be 76f9 65bf
00000280: 6747 91bf 0a91 8b3f 7656 66bf 5806 6cbf
00000290: a5ce 92bf d35d 9c3f 5cc5 e2bd f8fd 60bf
000002a0: 886c 54bf 6dac ae3f 8c07 223e c1da 81bf
000002b0: c48d 47bf 06a3 5a3f 0ef1 5bbe b3ea 4abf
000002c0: 521f 83bf 0bbc 863f 3636 f4be bcf6 6cbf
000002d0: 2318 85bf 7a4f 503f 7364 67bf f018 89bf
000002e0: 43f7 90bf 150b 823f 245e 5dbf cbfd 80bf
000002f0: ae06 5fbf e2e7 4e3f f958 49bf c4fa a2bf
00000300: 78c3 4cbf 929a 5b3f 4ce5 f9be 76b1 9bbf
00000310: 4ada 81bf 25de 433f 1f70 52bf 0dd3 6fbf
00000320: 7448 8cbf 4c73 803f fd0b 68bf 9055 7abf
00000330: c46c 8dbf 1845 9c3f 5a2b 56bf 6a27 9ebf
00000340: 9059 34bf 48e1 323f 6c28 e6be 7f1e 97bf
00000350: a9d9 33bf 7a09 a23f 32fe de3c 0bd0 81bf
00000360: 4783 95bf ec71 a23f d618 353f da13 3dbf
00000370: ec20 30bf bf9a bb3f f07b 89bf 855b 44bf
00000380: c7ea 81bf b6c8 513f fa8f 8abf 3b38 6ebf
00000390: efea 84bf 7fc6 9e3f f4a8 b5bf 3557 69bf
000003a0: dab5 82bf f834 043f 0833 37bf 7229 42bf
000003b0: f253 87bf 3e88 4f3f 95c7 96bf b132 71bf
000003c0: fa0b 9abf 14cf f63e 96ab 85bf 476d 80bf
000003d0: b44d 83bf 0040 863f 3ce7 10bf df72 75bf
000003e0: 775d 60bf 08f1 a33f 6a93 04bf 4d5f 56bf
000003f0: 89e8 2ebf 4722 d23f f6b7 cbbe 9946 4dbf
-0.0 0.0 -0.0 -0.0 -0.5918188 0.63100326 -1.4395607 -1.1062706
-0.9828472 1.4781078 -0.9694453 -1.0380324 -1.0328118 0.9435045 -1.0508355 -0.94481456
-1.0063516 0.87454915 -0.79432064 -0.92711025 -1.4957384 0.8486041 -1.1680412 -0.8929035
-0.44580483 1.1857823 -0.9947632 -1.0165012 -1.1891947 1.1639643 -1.137317 -1.2015187
-0.84405696 1.5263379 -1.0302465 -1.0048217 -1.0999376 0.4752456 -1.0404508 -0.9629703
-0.7805446 1.0327718 -1.0476935 -1.0243475 -1.1551256 0.38008052 -0.87145615 -1.061219
-1.3010757 0.9252982 -1.276588 -0.97377473 -0.5604058 1.3149934 -0.8496177 -0.93549067
-0.91543067 1.5995548 -0.901514 -1.0303752 -0.88281524 0.80674314 -0.933178 -1.1845257
-1.5923414 1.2273394 -1.268895 -1.0778484 -0.48000193 1.107072 -0.79423296 -1.0321124
-0.60579026 0.66767883 -0.8506955 -1.0375789 -0.8548414 0.4772721 -0.8626671 -0.9557737
-1.3678756 1.3140448 -1.2857319 -1.054833 -0.9836926 0.7325388 -0.98889947 -1.0537852
-1.0331464 0.98006165 -0.97513556 -0.93444085 -0.6933875 1.3135152 -0.8405004 -1.3113678
-1.2595388 1.266643 -0.73861206 -1.2454782 -0.8991061 0.89194655 -1.1117008 -1.0730556
-0.8188515 1.346256 -0.91344297 -1.057463 -1.0666924 0.8473735 -1.1062708 -0.87353754
-1.0884815 0.7342119 -0.8425817 -1.0506746 -1.1183213 0.6312627 -0.9499203 -0.91141087
-1.1188707 0.7898057 -1.0752327 -0.9335416 -0.90830195 0.24050641 -0.5803575 -1.057197
-1.0488217 1.2422833 -0.54447746 -1.0263431 -1.2371619 1.3760657 0.11735055 -0.995398
-0.7933698 1.0780684 -0.31803647 -1.0537846 -1.1431837 0.93764204 -0.88419616 -0.8675399
-0.9267132 0.99498767 0.24099818 -1.1288811 -1.0855055 1.0534523 0.1960347 -0.95821327
-0.86358947 0.77179706 -0.5450316 -0.87414885 -0.7627746 0.9544048 -0.291924 -0.8983377
-1.1349915 1.0903637 -0.8997568 -0.9219718 -1.1469313 1.2216133 -0.110727996 -0.87887526
-0.82978106 1.364637 0.15823191 -1.0144883 -0.7795069 0.85405004 -0.21478674 -0.7926437
-1.0243933 1.0526136 -0.4769761 -0.92563987 -1.0397991 0.8137127 -0.9038765 -1.0710735
-1.1325458 1.0159632 -0.8647177 -1.0077451 -0.8711957 0.80822575 -0.78651386 -1.2732778
-0.7998576 0.8578273 -0.48807752 -1.2163532 -1.0144742 0.7651084 -0.82202333 -0.9368141
-1.0959611 1.0035186 -0.9064329 -0.9778681 -1.1048818 1.2208586 -0.836599 -1.2355778
-0.7044916 0.69875 -0.44952714 -1.1806182 -0.70254 1.2659142 0.02722082 -1.0141615
-1.1680688 1.2691016 0.7074102 -0.73858416 -0.68800235 1.46566 -1.0740948 -0.7670215
-1.0149773 0.81946886 -1.0825188 -0.9305455 -1.0384196 1.2404326 -1.4192185 -0.9114869
-1.0211747 0.51643324 -0.7156224 -0.7584449 -1.0572493 0.81067264 -1.1779658 -0.94217974
-1.2034905 0.48204863 -1.0442989 -1.0033349 -1.0258088 1.0488281 -0.56602836 -0.95878404
-0.87642616 1.2807932 -0.51787436 -0.8373917 -0.6832357 1.6416711 -0.3978879 -0.8018585
