rlbench_data/rlbench_data/take_umbrella_out_of_umbrella_stand/train/20240914T182524_73_b893_failure.npz (npz, 543017 bytes, 1 tensors)

actions f4 [73, 4]
00000000: 0000 0000 0000 0080 0000 0000 0000 0080
00000010: de4a 6f3f 1ccf 9dbf 2f5f 023f f5e9 34bf
00000020: 33c7 713f 63c3 8ebf 258b 5abf f80e 54bf
00000030: 299b 6a3f 94ae 70bf 59ea 96bf d8f7 ddbe
00000040: d7b8 5c3f c703 90bf 0d74 96bf 50b7 bfbf
00000050: 9188 683f 03b5 91bf a242 99bf 70ae 5bbf
00000060: ea1d 583f 6634 88bf d05d 82bf 8ca8 3abf
00000070: ab46 7e3f 0b46 73bf c514 90bf 5fd2 64bf
00000080: 2ee1 9c3f 7a06 6abf a2ba 79bf f830 40bf
00000090: e971 6b3f 0a64 93bf d4ff 77bf 3138 a7bf
000000a0: 174f 843f b303 87bf a4ee 60bf 4284 8abf
000000b0: 6793 613f b0ff c2bc eabc 74bf b7dd 81bf
000000c0: 626c 8b3f bcf6 373e 2a31 97bf 645a 80bf
000000d0: c0ae 423f f6dc 453e 3a80 81bf 9af2 80bf
000000e0: 3b88 703f 2d0b 463f 5387 5bbf d8f6 87bf
000000f0: aab1 3f3f 4ab7 fbbe be25 68bf ce39 81bf
00000100: 5fe9 8d3f 3493 973f 6f09 7fbf 2442 4bbe
00000110: 3ae4 3e3f f9c1 163f bfc4 6bbf 26fd 063f
00000120: 2db9 843f b078 633f bd13 8cbf ec08 70bf
00000130: a667 2e3f 1efa 563f 0093 e8be bae2 483f
00000140: 8793 463f 52f7 3dbf a267 f3be 96db 96bf
00000150: e0ce 653f 2061 82bf 5aca 8ebf 7704 5abf
00000160: d885 45bf e2df 5dbf 99ce 82bf 375c a53f
00000170: 9b10 163e 12c1 22bd a765 dcbe 5047 24bf
00000180: 34c2 61bf 87e2 51bf 9cb7 87bf 9e01 813f
00000190: 20df 4bbc 5014 c1bc 2f8a 2dbf fd39 5abf
000001a0: b099 023d 7730 7ebf a51b 1cbf 7c69 263f
000001b0: 2325 753f c947 9bbe 1b85 49bf 14ea 3ebf
000001c0: 04fb 753f 7cf5 753f 4e78 87bf 0074 1d39
000001d0: 049f a33f da88 96bf 7e6f 523f 2e77 8dbf
000001e0: be1a 5c3f 4561 45bf 1e9b d0be e793 f83e
000001f0: 1cd2 783f 6712 a93f 41f7 59bf 3034 84bf
00000200: 2a4f 8c3f bada 81bf 440f 91bf aa00 86bf
00000210: 5993 793f e21f 60bf 189a 65bf 24de 8ebf
00000220: ea55 723f ca78 56bf 9335 90bf 25d2 6fbf
00000230: e28c 653f 567c 68bf 557c 78bf 3d9c 82bf
00000240: 1103 983f 49f3 51bf 6a23 c43e 76d1 5ebf
00000250: c098 913f e034 5dbf 2509 3cbf 2ab8 69bf
00000260: ec5a 7a3f 3bd6 3f3f b22e f43e 38ce 99bf
00000270: b724 a03f 8390 a7bf 4acc 1f3f 1a2f 67bf
00000280: 3a3d 743f 63c3 5a3f e260 333f 47ea 24bf
00000290: 0bd8 883f 484a 7abf 50a4 673f d94c 89bf
000002a0: df17 863f e3d7 3b3f 4e51 5b3f c8d6 91bf
000002b0: 009e 933f 7a76 26bf 0d63 983f 647d 8dbf
000002c0: 2c00 adbe 9f5a 863f 9c36 963f e4d5 05bf
000002d0: b646 863f f6a1 0cbf d881 1a3f e6ec 93bf
000002e0: b99f 6f3f 21f3 853f 4aee 523f 71de 74bf
000002f0: ffe2 5b3f 4b57 ba3f f1c5 843f 4bcf 80bf
00000300: bee9 13bf d922 91bf 4883 9e3f a278 39bf
00000310: 134c 763f 73f8 0dbf 58f1 253f 691b 92bf
00000320: 2c61 813f 19d7 483f 8b86 913f 53f1 6abf
00000330: 28c3 a23f b1de 143f a1cd 2f3f 6880 5cbf
00000340: f36f 8a3f bb5e 6c3f 2e5d 2d3f ec8f a0bf
00000350: 12c4 ad3f 0016 8a3b 2e48 8a3f 3801 84bf
00000360: e8f2 2a3d 86ff 2dbf 383e 783f 3bab 86bf
00000370: 425e 8d3f 6014 93be 5527 423f cafc 99bf
00000380: a243 643f 2412 b1be 5afc af3f aa32 93bf
00000390: 0f23 523f db08 d0be 42c4 ad3f e968 78bf
000003a0: c847 5b3f fecc 76bf b2ea 233f 108c 2fbd
000003b0: 479d c6be ae8d a73d f290 753f 77e6 50bf
000003c0: 546b 7a3f 468a 163f ab1c 793f bb55 8dbf
000003d0: b389 893f b21f 6f3f 3d8e 733f c204 90bf
000003e0: 5b95 523f b417 9b3f 3e08 a83f cff8 a0bf
000003f0: 24ad f33e 5028 843d 1987 b03f 2637 a6bf
0.0 -0.0 0.0 -0.0 0.93473613 -1.232883 0.5092649 -0.7066949
0.9444458 -1.1153377 -0.8536857 -0.8283534 0.91643006 -0.94016385 -1.1790267 -0.43353152
0.86219543 -1.1251153 -1.1754166 -1.4977818 0.90833384 -1.1383365 -1.197346 -0.85813046
0.84420645 -1.0640991 -1.0184879 -0.7291343 0.9932658 -0.9502875 -1.1256338 -0.893835
1.2256219 -0.9141613 -0.97550404 -0.7507472 0.9197069 -1.1514904 -0.9687474 -1.3064023
1.0336636 -1.0548004 -0.87864137 -1.0821612 0.88115543 -0.023803562 -0.9560076 -1.0145787
1.0892451 0.17965215 -1.1811879 -1.0027585 0.760479 0.19322571 -1.0117257 -1.0074036
0.9395787 0.773608 -0.85753363 -1.0622206 0.7488047 -0.49163276 -0.9068259 -1.0095766
1.1086844 1.1841798 -0.9962377 -0.1984945 0.74566996 0.5888973 -0.92097086 0.52730024
1.0369011 0.8885603 -1.0943524 -0.93763614 0.68126905 0.839754 -0.45424652 0.7847096
0.7756886 -0.74205506 -0.47540003 -1.1785762 0.8976879 -1.018589 -1.1155503 -0.8516306
-0.77157354 -0.86669743 -1.0219299 1.2918767 0.14654772 -0.039734907 -0.43046305 -0.64171314
-0.88186955 -0.8198628 -1.0602908 1.0078619 -0.012443334 -0.023569256 -0.67788976 -0.85244733
0.03188485 -0.992927 -0.6097968 0.65004706 0.9575979 -0.30328205 -0.7871873 -0.74575925
0.96086144 0.96077704 -1.0583589 0.000150159 1.2782903 -1.1760514 0.82201374 -1.1051996
0.85978305 -0.77101547 -0.40743345 0.4855034 0.971956 1.3208741 -0.85142905 -1.0328426
1.0961659 -1.0144875 -1.1332784 -1.0468953 0.9749046 -0.8754865 -0.89688253 -1.1161542
0.94662344 -0.8377806 -1.126635 -0.9368003 0.89668095 -0.9081472 -0.97064716 -1.020393
1.1875936 -0.8201185 0.3830827 -0.8703836 1.1374741 -0.86408806 -0.73451453 -0.9129664
0.97794986 0.74936265 0.47691876 -1.2016058 1.2511204 -1.3090976 0.62421095 -0.90306246
0.95405924 0.85454386 0.70069706 -0.6441998 1.0690931 -0.97769594 0.90485096 -1.0726577
1.0476035 0.7337629 0.85670936 -1.1393671 1.1532593 -0.6502453 1.1905228 -1.1053891
-0.33789194 1.0496405 1.1735415 -0.52279496 1.0490329 -0.5493463 0.60354376 -1.1556671
0.9360309 1.0464822 0.8239485 -0.9565192 0.85893244 1.455789 1.0372907 -1.0063261
-0.5777854 -1.133876 1.2383814 -0.72449696 0.9620983 -0.5545723 0.64821386 -1.1414615
1.010778 0.7845321 1.1369184 -0.9177448 1.2715807 0.581523 0.6867314 -0.8613343
1.0815414 0.9233205 0.67720306 -1.2543921 1.3575461 0.0042140484 1.0803277 -1.0312872
0.04173556 -0.6796802 0.9696994 -1.0521005 1.104439 -0.28726482 0.75841266 -1.203027
0.891657 -0.34584153 1.3748887 -1.1499836 0.82084745 -0.40631756 1.3575518 -0.9703508
0.85656404 -0.96406543 0.6402999 -0.042858183 -0.38791868 0.0818132 0.95924294 -0.8160166
0.9782002 0.5880474 0.9730937 -1.1041788 1.0745147 0.9340774 0.95138913 -1.1251452
0.8225915 1.2116609 1.3127515 -1.257593 0.47593033 0.064530015 1.3791229 -1.298558
