metaworld_data/metaworld_data/drawer-open/train/20240503T170801_44_b22d_success.npz (npz, 77949 bytes, 5 tensors)

actions f8 [44, 4]
-0.26300199811810177 0.3734311021804081 0.7341876528252143 -0.9104712789258392 -0.033024142072460266 0.5220826136871216 0.6795813344021524 -1.0
-0.42595350054563685 0.5528662705628206 0.6277003742265683 -0.9284293411582738 -0.10094167692715986 0.5489968318220914 0.706931763435372 -0.9966024420830921
-0.19243724199618523 0.37566920835442064 0.5452124557224851 -0.7789215019212684 -0.01847434221255643 0.2876155686761488 0.31976762822645355 -1.0
0.08206874140345366 0.28367911781339467 0.24429344854725818 -0.9400573485955616 -0.13407405362823172 0.4394674163046752 0.44882583765357714 -0.8762505681224296
-0.059117411280700034 0.4999310588864943 0.5552426722598953 -0.9005264926788547 0.009443039708171043 0.06178833715023546 0.33993350921576354 -1.0
-0.06052160016715625 0.30244863384745985 0.37646157952688153 -1.0 -0.1532772210716791 0.21121177881048298 -0.8012408612034568 -0.854843921522381
0.04758962414698309 0.2747274520322994 -0.8608564540354462 -0.9554931574929852 0.12841484305019446 0.11681419427754686 -1.0 -0.9863500988860244
-0.14487701964720584 0.19108193847620178 -0.9191583914540888 -0.8621785182032052 -0.10192838897446375 0.23124895104973245 -0.6622516854269989 -1.0
0.28754666325614897 0.06884479649262536 -0.6845280668002722 -0.9444283361331692 0.11275726476103737 0.15646796163149734 -0.756085662814919 -1.0
-0.043112335286265485 0.18386817004485295 -0.4355398343981868 -1.0 0.03080726210550626 0.07974400941232264 -0.5943290747407313 -0.9149210097820634
0.15563074458809048 0.05353459940810852 -0.5748860515573198 -1.0 -0.07819072423679507 0.06885698164424353 -0.2993872999581144 -1.0
0.023779569116938043 0.0433945449309382 -0.3684505983088321 -0.9966611996757315 0.11044194617711675 0.0059161255826223474 -0.46036669657277296 -1.0
0.03569259340000651 0.0181805345936948 -0.3655861402776473 -1.0 -0.04916904405201859 0.08308797886170954 -0.24203417080824552 -1.0
-0.03188523223771278 0.2602772828634616 -0.2651021020832366 -0.8708470998879086 -0.1914735343747782 -0.015375366127161172 -0.2771574704012364 -0.9655675287156041
-0.09962723288949406 -0.04876355564317192 -0.10195692090738442 -1.0 -0.13511078132514842 -0.13100870638086778 -0.06957426109466094 -1.0
-0.10432684145078178 0.013682647240777682 -0.38529191944185065 -1.0 0.10719160712281556 -0.0019624696459584687 -0.12623466531668404 -1.0
0.06448295780606039 0.12373028302127174 -0.2653498308546854 -1.0 -0.05984627554022455 -1.0 -1.0 -1.0
-0.019405218921722922 -1.0 -1.0 -1.0 0.07851216554709718 -1.0 -0.8598053397272555 -1.0
-0.1450964274880878 -1.0 -0.11874503565117045 -0.9601618987140121 -0.2186916348525137 -1.0 0.5404312398042059 -1.0
-0.24997532919314655 -1.0 0.7034987528880073 -0.9472746011353599 0.052416407429200534 -1.0 0.618025555903873 -0.7985908850990453
0.22252947871128748 -1.0 0.23817966652046468 -0.9618806013847144 0.3029502210712512 -1.0 -0.20503133905968907 -0.8943625849259326
0.46835649604993246 -1.0 -0.6358259074507688 -0.9747843046997432 0.05123540248369188 -1.0 -0.7081557562146992 -1.0
00000000: 2ccb 2c55 06d5 d0bf 3e24 cb90 4be6 d73f
00000010: 8c5c c01a 777e e73f 79e1 dda9 9422 edbf
00000020: 4cfe 5b54 8ae8 a0bf 9f15 f398 e6b4 e03f
00000030: 4c56 c75a 21bf e53f 0000 0000 0000 f0bf
00000040: 6274 9d78 d242 dbbf 251f e49a 14b1 e13f
00000050: acae 5f18 1f16 e43f da7d 1d73 b1b5 edbf
00000060: e29e 3451 50d7 b9bf 6312 c9cd 6191 e13f
00000070: 4aac 8e5c 2f9f e63f 288a fbcd 2ae4 efbf
00000080: 8ef9 7396 c8a1 c8bf c8c5 ffdc f60a d83f
00000090: c265 5664 6172 e13f c7e5 1cc9 ecec e8bf
000000a0: 0ae0 781e f0ea 92bf 4435 5221 4b68 d23f
000000b0: ae55 63a4 1277 d43f 0000 0000 0000 f0bf
000000c0: f809 5a00 7502 b53f 2d44 6475 cc27 d23f
000000d0: ab9a 11fa 0145 cf3f 17a3 1226 f314 eebf
000000e0: e2a6 c9ad 5629 c1bf a7ea 2bf1 3b20 dc3f
000000f0: 539a 9401 90b9 dc3f fffd a5a1 3e0a ecbf
00000100: a14a 2628 a344 aebf 6504 0bd7 defe df3f
00000110: 8e65 d647 8cc4 e13f ab97 67ef 1cd1 ecbf
00000120: f479 c555 df56 833f 6041 ab8e b8a2 af3f
00000130: a75b 397a 78c1 d53f 0000 0000 0000 f0bf
00000140: e1cb d6ea affc aebf df0f c683 515b d33f
00000150: 702e 114f f217 d83f 0000 0000 0000 f0bf
00000160: 79c0 dc85 969e c3bf 76b0 42d1 fc08 cb3f
00000170: 9fce e2df c3a3 e9bf c1ef c3a3 e15a ebbf
00000180: e031 aece aa5d a83f 56b2 7273 2295 d13f
00000190: a43f 94d5 228c ebbf 267e df62 6693 eebf
000001a0: 045c 9cc7 e56f c03f 8c72 21f8 88e7 bd3f
000001b0: 0000 0000 0000 f0bf 1fe6 2315 2e90 efbf
000001c0: 42d1 a986 548b c2bf f347 4e7a 5f75 c83f
000001d0: f674 e4db be69 edbf 63e3 5f67 f796 ebbf
000001e0: dfe5 2d99 fa17 babf 8917 ffcc 9099 cd3f
000001f0: a627 5472 2a31 e5bf 0000 0000 0000 f0bf
00000200: d894 b01e 2a67 d23f 9383 6f05 d09f b13f
00000210: a03d 8367 a7e7 e5bf ed71 23c6 c138 eebf
00000220: 44fa 88fc a8dd bc3f c41e 0a65 2407 c43f
00000230: 4777 588f da31 e8bf 0000 0000 0000 f0bf
00000240: 24a7 37ec d112 a6bf f61a 8f00 fe88 c73f
00000250: 261c 3678 e2df dbbf 0000 0000 0000 f0bf
00000260: ccc9 e35c f08b 9f3f d953 7a78 1a6a b43f
00000270: 2259 6268 be04 e3bf 05fe ed6c 0847 edbf
00000280: 6905 214f b5eb c33f 4a17 5313 e368 ab3f
00000290: 32b0 cb6e 7765 e2bf 0000 0000 0000 f0bf
000002a0: 3895 72ab 4e04 b4bf 8467 4374 9ca0 b13f
000002b0: 1c1a 8a59 2929 d3bf 0000 0000 0000 f0bf
000002c0: 484e aede ab59 983f b13a 9b4e cf37 a63f
000002d0: 7265 7bd1 b194 d7bf a094 3907 a6e4 efbf
000002e0: 76f3 ef62 ec45 bc3f 109f 57de 813b 783f
000002f0: baa5 7ce0 a576 ddbf 0000 0000 0000 f0bf
00000300: 7e93 b9b2 4c46 a23f 14ce 0306 eb9d 923f
00000310: 5941 1769 c365 d7bf 0000 0000 0000 f0bf
00000320: 4ea6 5b58 af2c a9bf 2cdb e6f7 4045 b53f
00000330: ec64 11c8 f9fa cebf 0000 0000 0000 f0bf
00000340: 2068 5fdb 4253 a0bf 6b94 720c 62a8 d03f
00000350: 3e18 a3ce 6ef7 d0bf 6db8 babc fadd ebbf
00000360: d837 186c 3482 c8bf 0004 71b5 1e7d 8fbf
00000370: 16c9 cdaf f2bc d1bf cb37 bddf ede5 eebf
00000380: 7125 0d9b 2b81 b9bf 30bd 7269 89f7 a8bf
00000390: 3ae8 e548 d919 babf 0000 0000 0000 f0bf
000003a0: 5873 9061 4f4b c1bf f7d3 b2ae e4c4 c0bf
000003b0: ca80 0b68 9ecf b1bf 0000 0000 0000 f0bf
000003c0: 1a47 20f4 29b5 babf 28f0 5fd3 a505 8c3f
000003d0: b79c 5a70 9fa8 d8bf 0000 0000 0000 f0bf
000003e0: 4c88 ffbe e870 bb3f f070 5cde 9813 60bf
000003f0: 8c0d 941f 7528 c0bf 0000 0000 0000 f0bf
00000400: 1027 ed82 f481 b03f 57e7 19af c9ac bf3f
00000410: c547 61db 7dfb d0bf 0000 0000 0000 f0bf
00000420: 6a20 77c8 2ba4 aebf 0000 0000 0000 f0bf
00000430: 0000 0000 0000 f0bf 0000 0000 0000 f0bf
00000440: 90e4 8f32 f6de 93bf 0000 0000 0000 f0bf
00000450: 0000 0000 0000 f0bf 0000 0000 0000 f0bf
00000460: 59e8 5c8f 5f19 b43f 0000 0000 0000 f0bf
00000470: 5dc0 e17c 8683 ebbf 0000 0000 0000 f0bf
00000480: 73f4 690d 8592 c2bf 0000 0000 0000 f0bf
00000490: 3823 af1c 1366 bebf 3af1 3a72 a5b9 eebf
000004a0: 4ad7 cc65 16fe cbbf 0000 0000 0000 f0bf
000004b0: fa43 9674 364b e13f 0000 0000 0000 f0bf
000004c0: bf7f d80b 31ff cfbf 0000 0000 0000 f0bf
000004d0: edc8 0dd1 0f83 e63f 6ca6 06d3 1250 eebf
000004e0: f44c 5dc7 52d6 aa3f 0000 0000 0000 f0bf
000004f0: 1c61 d687 ddc6 e33f 7e4a cc78 0e8e e9bf
00000500: 08ff ba90 d87b cc3f 0000 0000 0000 f0bf
00000510: ce87 23db ab7c ce3f 4955 b3d3 b9c7 eebf
00000520: a149 f452 8963 d33f 0000 0000 0000 f0bf
00000530: 4c4e f587 773e cabf 9fbb a048 9e9e ecbf
00000540: ccd4 5986 8df9 dd3f 0000 0000 0000 f0bf
00000550: 1c6b ce92 af58 e4bf 27dd aada 6e31 efbf
00000560: 8434 21d4 863b aa3f 0000 0000 0000 f0bf
00000570: 2e52 ad42 36a9 e6bf 0000 0000 0000 f0bf

rewards f8 [44, 1]
2.47494917734615 2.5325155646704864 2.633809337435441 2.7722588158752637 2.923617951311666 3.062346866343219 3.1799499736795687 3.3051698707299373
3.47055439976402 3.6394030912692386 3.7436217175494235 3.8105955875827737 3.919440073867401 4.12312342872171 4.439579148492854 4.882698847039041
5.413931496979314 5.961769234071861 6.530076571648174 7.11349652521651 7.658600513810111 8.143041472362723 8.591309562145803 8.97126977954007
9.269230358368414 9.540381295568293 9.855615483972151 10.222478544007748 10.549165098793855 10.76867655912153 10.895541508457466 10.959268883482757
10.997586516851182 10.926677634309865 10.176248109804435 10.602818545459932 11.470035116811598 11.936583912247318 12.546937341639492 13.251592421655552
13.661497332601408 13.898057837544918 16.32193155308298 18.306756437416755
00000000: e6b5 7f27 b2cc 0340 38f7 3685 9742 0440
00000010: 297a 41a1 0a12 0540 05db b107 962d 0640
00000020: 980e f7ce 9163 0740 209e bfb6 af7f 0840
00000030: 5ef5 9e9c 8970 0940 b813 b4e6 fc70 0a40
00000040: 92cd 6f06 b2c3 0b40 93b3 2f5e 7f1d 0d40
00000050: d0c2 6bf1 eff2 0d40 6e99 178a 197c 0e40
00000060: 7423 bf65 035b 0f40 aeec 6e11 147e 1040
00000070: 101f 4b09 21c2 1140 94ff e034 e287 1340
00000080: ee3d 89a8 dda7 1540 ea8c ba08 dad8 1740
00000090: 396b 8e64 cc1e 1a40 e60e e06e 3874 1c40
000000a0: dcc5 4f2c 68a2 1e40 078a 5bbb 3c49 2040
000000b0: e474 7e20 c02e 2140 7a6f c545 4af1 2140
000000c0: be90 c08f d889 2240 ffab 6fdb ac14 2340
000000d0: 2439 933b 13b6 2340 6326 2db5 e871 2440
000000e0: 33d9 f62a 2c19 2540 f041 55f9 8f89 2540
000000f0: 1612 a66a 84ca 2540 fc41 854a 25eb 2540
00000100: de9c f1a8 c3fe 2540 4e97 aa7d 75da 2540
00000110: 092f 3731 3d5a 2440 6c58 e4a1 a434 2540
00000120: ce5a 5d71 a8f0 2640 ba1f 32ed 87df 2740
00000130: 089b d62b 0818 2940 34dd cdb8 d080 2a40
00000140: 1dd4 43c7 af52 2b40 0458 a43c cecb 2b40
00000150: b90a 341b 6a52 3040 dd8a 0297 874e 3240

discounts f8 [44]
1.0 1.0 1.0 1.0 1.0 1.0 1.0 1.0
1.0 1.0 1.0 1.0 1.0 1.0 1.0 1.0
1.0 1.0 1.0 1.0 1.0 1.0 1.0 1.0
1.0 1.0 1.0 1.0 1.0 1.0 1.0 1.0
1.0 1.0 1.0 1.0 1.0 1.0 1.0 1.0
1.0 1.0 1.0 1.0
00000000: 0000 0000 0000 f03f 0000 0000 0000 f03f
00000010: 0000 0000 0000 f03f 0000 0000 0000 f03f
00000020: 0000 0000 0000 f03f 0000 0000 0000 f03f
00000030: 0000 0000 0000 f03f 0000 0000 0000 f03f
00000040: 0000 0000 0000 f03f 0000 0000 0000 f03f
00000050: 0000 0000 0000 f03f 0000 0000 0000 f03f
00000060: 0000 0000 0000 f03f 0000 0000 0000 f03f
00000070: 0000 0000 0000 f03f 0000 0000 0000 f03f
00000080: 0000 0000 0000 f03f 0000 0000 0000 f03f
00000090: 0000 0000 0000 f03f 0000 0000 0000 f03f
000000a0: 0000 0000 0000 f03f 0000 0000 0000 f03f
000000b0: 0000 0000 0000 f03f 0000 0000 0000 f03f
000000c0: 0000 0000 0000 f03f 0000 0000 0000 f03f
000000d0: 0000 0000 0000 f03f 0000 0000 0000 f03f
000000e0: 0000 0000 0000 f03f 0000 0000 0000 f03f
000000f0: 0000 0000 0000 f03f 0000 0000 0000 f03f
00000100: 0000 0000 0000 f03f 0000 0000 0000 f03f
00000110: 0000 0000 0000 f03f 0000 0000 0000 f03f
00000120: 0000 0000 0000 f03f 0000 0000 0000 f03f
00000130: 0000 0000 0000 f03f 0000 0000 0000 f03f
00000140: 0000 0000 0000 f03f 0000 0000 0000 f03f
00000150: 0000 0000 0000 f03f 0000 0000 0000 f03f

skills f8 [44]
0.0 0.0 0.0 0.0 0.0 0.0 0.0 0.0
0.0 0.0 0.0 0.0 0.0 0.0 0.0 0.0
0.0 0.0 0.0 0.0 0.0 0.0 0.0 0.0
0.0 0.0 0.0 0.0 0.0 0.0 1.0 1.0
1.0 1.0 1.0 1.0 1.0 0.0 0.0 1.0
1.0 1.0 1.0 2.0
00000000: 0000 0000 0000 0000 0000 0000 0000 0000
00000010: 0000 0000 0000 0000 0000 0000 0000 0000
00000020: 0000 0000 0000 0000 0000 0000 0000 0000
00000030: 0000 0000 0000 0000 0000 0000 0000 0000
00000040: 0000 0000 0000 0000 0000 0000 0000 0000
00000050: 0000 0000 0000 0000 0000 0000 0000 0000
00000060: 0000 0000 0000 0000 0000 0000 0000 0000
00000070: 0000 0000 0000 0000 0000 0000 0000 0000
00000080: 0000 0000 0000 0000 0000 0000 0000 0000
00000090: 0000 0000 0000 0000 0000 0000 0000 0000
000000a0: 0000 0000 0000 0000 0000 0000 0000 0000
000000b0: 0000 0000 0000 0000 0000 0000 0000 0000
000000c0: 0000 0000 0000 0000 0000 0000 0000 0000
000000d0: 0000 0000 0000 0000 0000 0000 0000 0000
000000e0: 0000 0000 0000 0000 0000 0000 0000 0000
000000f0: 0000 0000 0000 f03f 0000 0000 0000 f03f
00000100: 0000 0000 0000 f03f 0000 0000 0000 f03f
00000110: 0000 0000 0000 f03f 0000 0000 0000 f03f
00000120: 0000 0000 0000 f03f 0000 0000 0000 0000
00000130: 0000 0000 0000 0000 0000 0000 0000 f03f
00000140: 0000 0000 0000 f03f 0000 0000 0000 f03f
00000150: 0000 0000 0000 f03f 0000 0000 0000 0040

successes f8 [44]
0.0 0.0 0.0 0.0 0.0 0.0 0.0 0.0
0.0 0.0 0.0 0.0 0.0 0.0 0.0 0.0
0.0 0.0 0.0 0.0 0.0 0.0 0.0 0.0
0.0 0.0 0.0 0.0 0.0 0.0 0.0 0.0
0.0 0.0 0.0 0.0 0.0 0.0 0.0 0.0
0.0 0.0 0.0 1.0
00000000: 0000 0000 0000 0000 0000 0000 0000 0000
00000010: 0000 0000 0000 0000 0000 0000 0000 0000
00000020: 0000 0000 0000 0000 0000 0000 0000 0000
00000030: 0000 0000 0000 0000 0000 0000 0000 0000
00000040: 0000 0000 0000 0000 0000 0000 0000 0000
00000050: 0000 0000 0000 0000 0000 0000 0000 0000
00000060: 0000 0000 0000 0000 0000 0000 0000 0000
00000070: 0000 0000 0000 0000 0000 0000 0000 0000
00000080: 0000 0000 0000 0000 0000 0000 0000 0000
00000090: 0000 0000 0000 0000 0000 0000 0000 0000
000000a0: 0000 0000 0000 0000 0000 0000 0000 0000
000000b0: 0000 0000 0000 0000 0000 0000 0000 0000
000000c0: 0000 0000 0000 0000 0000 0000 0000 0000
000000d0: 0000 0000 0000 0000 0000 0000 0000 0000
000000e0: 0000 0000 0000 0000 0000 0000 0000 0000
000000f0: 0000 0000 0000 0000 0000 0000 0000 0000
00000100: 0000 0000 0000 0000 0000 0000 0000 0000
00000110: 0000 0000 0000 0000 0000 0000 0000 0000
00000120: 0000 0000 0000 0000 0000 0000 0000 0000
00000130: 0000 0000 0000 0000 0000 0000 0000 0000
00000140: 0000 0000 0000 0000 0000 0000 0000 0000
00000150: 0000 0000 0000 0000 0000 0000 0000 f03f
