metaworld_data/metaworld_data/drawer-open/train/20240503T170802_49_b1f0_success.npz (npz, 94189 bytes, 5 tensors)

actions f8 [49, 4]
000000 9f 9a f3 eb 77 4e d3 3f ce ba 4e d9 0c 11 e5 3f
       0.30166433374544427 0.6583313221252298
000010 1e ca 5c a5 25 85 e5 3f 00 00 00 00 00 00 f0 bf
       0.6725033025489358 -1.0
000020 c0 9d c5 f9 ed 81 ce 3f 4e ef d5 50 bc 89 e1 3f
       0.23834013648887087 0.5480634287664345
000030 79 24 4e ac 6c b2 e9 3f 69 a9 60 50 6e 1b ef bf
       0.8030303349816129 -0.9720985002398211
000040 8c 4d 1d ed ea 0c bc 3f 70 e1 be ad ec bf db 3f
       0.10957210816314084 0.433589143441643
000050 63 73 d2 57 97 9b e2 3f 46 95 03 1d 26 01 ee bf
       0.5814930644297472 -0.9376402441672915
000060 ae 87 19 d6 54 7f d2 3f 51 98 bb b6 9b 34 df 3f
       0.2890216914003031 0.4875859531879359
000070 a0 65 9d 1e b0 74 e0 3f 00 00 00 00 00 00 f0 bf
       0.5142441366144119 -1.0
000080 32 73 9e 15 f8 52 d3 3f 15 3f 89 cc 1c b4 da 3f
       0.30193903075432893 0.4172431943343196
000090 1f 33 10 91 28 f7 e7 3f 00 00 00 00 00 00 f0 bf
       0.748920710875243 -1.0
0000a0 04 1a 36 c4 12 35 cf 3f 5c 6c 70 21 cb 2d de 3f
       0.2438071687758595 0.4715450121454461
0000b0 55 3c 4f 3d a4 87 d9 3f be 88 f4 c3 75 bd ec bf
       0.3989039038396574 -0.898127444005034
0000c0 1a ed 9a f7 0b cf be 3f 6d 94 e5 eb 16 6d de 3f
       0.12034678263710355 0.4754082969360017
0000d0 58 9d 09 00 60 ae da 3f 4e 00 bd b0 27 ed ef bf
       0.41689300540607155 -0.9976995899123808
0000e0 c0 70 39 b0 2e 79 b7 3f 7a 7a a6 c8 6f 7d d9 3f
       0.09169284632065722 0.3982810458636902
0000f0 42 ee 7d 04 d0 8a e2 3f a6 bf e1 99 f1 fd ef bf
       0.5794448936207532 -0.9997489934448722
000100 ea 05 ac 98 ef c6 c2 3f c1 21 92 97 fc 48 d0 3f
       0.1466960425823765 0.25445475389326694
000110 98 ee a3 89 32 96 dd 3f 5c dc fb 9a ee 2b ed bf
       0.46229232255402897 -0.9116127993610337
000120 ed 7e 50 c7 a0 30 c2 3f 78 a2 6f 1d d0 0e d0 3f
       0.1421090100493453 0.25090411066643226
000130 b8 da 2a 5d bb fc e0 3f 00 00 00 00 00 00 f0 bf
       0.5308510608363894 -1.0
000140 8e fe 5f c6 fd 00 c5 3f 65 30 a8 ae a8 30 d1 3f
       0.16409275232580395 0.2685949044832852
000150 70 52 8b 7d c8 2c d7 3f 00 00 00 00 00 00 f0 bf
       0.3621083475129927 -1.0
000160 32 f8 d8 a3 e2 d1 c6 3f f6 49 e4 b1 76 80 c4 3f
       0.17828019142501855 0.16017039953346995
000170 12 17 8a e2 ea 79 d0 3f 00 00 00 00 00 00 f0 bf
       0.25744125483503055 -1.0
000180 58 9c e6 5a 8f 72 d0 3f 1b b2 eb 8d 63 48 b1 3f
       0.25699218632730014 0.06751081671581753
000190 3e c1 43 76 6d 17 d5 3f 00 00 00 00 00 00 f0 bf
       0.3295549063614266 -1.0
0001a0 18 36 d1 10 1b fd ab 3f 23 48 63 7d c3 c4 c5 3f
       0.05466541843689415 0.17006724951221583
0001b0 a2 c2 58 e4 99 1d e7 bf e0 c4 60 90 bd 30 ef bf
       -0.7223634204766152 -0.9746997661478893
0001c0 9e 6b d4 e1 35 ed b9 3f 31 f2 97 2e ed b1 c3 3f
       0.10127579463407563 0.15386738562655602
0001d0 00 00 00 00 00 00 f0 bf 00 00 00 00 00 00 f0 bf
       -1.0 -1.0
0001e0 26 dc e9 2b 3f be a2 3f 28 6a c0 d0 a6 ac 92 3f
       0.03660771761945396 0.01823673867338918
0001f0 2e c3 fb 2d 6d 81 ec bf 00 00 00 00 00 00 f0 bf
       -0.8907991312135886 -1.0
000200 4f 33 50 03 70 a8 b4 3f 07 df d4 c5 4c 47 d2 3f
       0.08069515305414864 0.28560180015072983
000210 00 00 00 00 00 00 f0 bf 00 00 00 00 00 00 f0 bf
       -1.0 -1.0
000220 18 9f 48 3d 5b ea c2 3f 8c 1b db 4b 73 cd ce 3f
       0.1477769898640353 0.2406448479070743
000230 b5 7f cd 2b f8 07 ee bf d6 df f9 20 92 19 eb bf
       -0.9384728293916768 -0.8468714374603177
000240 f6 f2 5a be 89 84 d1 3f a1 e8 5d a0 80 64 b3 3f
       0.27371448125249687 0.0757522956390937
000250 24 db e6 f4 d8 b3 e9 bf 00 00 00 00 00 00 f0 bf
       -0.8032040389287869 -1.0
000260 a8 be c7 cf 7c e3 8a bf 2a cf fc ff 90 62 c7 3f
       -0.01312921055884371 0.1826955079974309
000270 c6 2a b0 51 e3 e7 ea bf 00 00 00 00 00 00 f0 bf
       -0.8408066363784534 -1.0
000280 00 88 ba 82 29 a4 22 3f ac 4a 54 82 41 22 d3 3f
       0.0001422215149107786 0.2989658138987277
000290 4d 97 a3 c5 25 89 e6 bf 5e d1 2a e3 27 f7 ea bf
       -0.7042416439187292 -0.8426703869686596
0002a0 f4 5a b9 65 87 74 a4 3f e9 5c 78 99 aa 7d cf 3f
       0.03995154492138467 0.24602253430996449
0002b0 fc f9 74 38 df 98 e7 bf d1 d1 89 f6 8c b8 ed bf
       -0.7374111273455237 -0.9287781539156247
0002c0 4c fe 76 f4 c6 99 c0 3f 76 a0 1e f9 e3 40 bb bf
       0.1296929067302578 -0.1064589007570492
0002d0 f1 02 7a ae cf 56 e3 bf 00 00 00 00 00 00 f0 bf
       -0.6043470771547544 -1.0
0002e0 0a 80 ad e8 9a 91 a5 3f d7 a9 6a 2d 7d 3a db 3f
       0.042126503851932354 0.4254448836824429
0002f0 48 50 ac 30 31 3b e4 bf aa d5 ed 93 ef 11 ee bf
       -0.6322256041189656 -0.9396894349326221
000300 0e 75 5f 42 19 7b b0 bf 3e cc d0 e9 52 50 a5 bf
       -0.06437833662444722 -0.04162844757265603
000310 e0 b4 37 0d c2 72 d7 bf 64 15 06 79 84 9c ef bf
       -0.3663792733266984 -0.9878561366792096
000320 f7 1c d9 ee a1 57 c4 bf 85 66 50 28 1c 8f c1 3f
       -0.15892433321480556 0.1371798703046815
000330 ac ef e3 83 83 1d dd bf 00 00 00 00 00 00 f0 bf
       -0.4549263751975967 -1.0
000340 40 80 e4 5e 98 fb 7c bf d4 da 4a d1 20 02 b7 3f
       -0.007075877378412143 0.08987622365644238
000350 47 1d d3 d3 e8 84 d1 bf 0e 1e 9d ac 3d b3 ef bf
       -0.2737371510124444 -0.9906299945222956
000360 c4 16 87 6e 4f 54 c4 3f bf 46 3b 68 a8 8b a8 bf
       0.15882294556484144 -0.04794050476415412
000370 ab 5d 4a bb 37 7a cf bf 00 00 00 00 00 00 f0 bf
       -0.2459172882561068 -1.0
000380 10 9b 1b da 05 af 72 bf 88 95 8b 88 98 86 b5 bf
       -0.004561446055709309 -0.0840850194322994
000390 91 6b bc 3d 25 e7 d2 bf c1 b7 26 d8 ee 10 ea bf
       -0.29535800007732244 -0.8145670148567136
0003a0 48 f1 bf 33 40 75 95 bf 32 c7 e1 b5 40 bb 94 bf
       -0.02095508876662791 -0.020245562649910905
0003b0 79 24 ae f4 c7 2e d1 bf 00 00 00 00 00 00 f0 bf
       -0.26848029036097604 -1.0
0003c0 90 f3 17 4f 90 ee 75 bf 92 2e d7 00 9f 2b cb 3f
       -0.005354465205070449 0.2122687105278272
0003d0 94 a6 6f 1f 9b 79 cb bf 2a 66 ab 06 88 f0 eb bf
       -0.2146486190315967 -0.873111737276479
0003e0 c0 f5 7a 9b 2f 82 bc bf 6a 91 5a 01 41 44 b9 3f
       -0.11136148019701064 0.09869772227336218
0003f0 1e 50 16 2a d3 33 b2 bf 00 00 00 00 00 00 f0 bf
       -0.07110328462141566 -1.0
000400 e0 98 d6 8b 25 dc 90 3f 6c dd 22 8f 1d a9 cf 3f
       0.016464792881060286 0.247348494425505
000410 78 2c d7 42 21 8d a2 3f 9a 18 66 f5 d5 19 ed bf
       0.03623298588680596 -0.9094037812181057
000420 ba a5 27 89 23 74 a9 bf 5e 2b 9a c0 9e c1 b1 3f
       -0.049714193813837196 0.06936065866663685
000430 ea a5 55 b3 28 4a c1 bf 09 b8 67 37 14 f2 eb bf
       -0.13507565266199545 -0.8733006555683015
000440 bb 6e ac dc 5e f5 c1 3f 6c f7 11 77 ed af aa 3f
       0.14030061507297895 0.052123471054968146
000450 ba bd 26 15 c4 d0 bd bf 00 00 00 00 00 00 f0 bf
       -0.11646676556005434 -1.0
000460 66 4e 65 27 42 98 c3 3f 72 88 9f 73 bd a8 bc bf
       0.15308405803317554 -0.11194976876098098
000470 bb 96 fb 2e 3f 39 b7 bf df 02 90 6e a0 46 ef bf
       -0.09071726700821163 -0.9773714217590984
000480 b2 ee 42 87 5c 34 ea 3f 00 00 00 00 00 00 f0 bf
       0.8188917772126472 -1.0
000490 00 00 00 00 00 00 f0 bf a8 c0 f2 43 4d 31 ed bf
       -1.0 -0.912268288337164
0004a0 1f 64 8d c6 fc b9 e1 3f 00 00 00 00 00 00 f0 bf
       0.5539535406088624 -1.0
0004b0 00 00 00 00 00 00 f0 bf 50 4c 36 34 17 71 ee bf
       -1.0 -0.9513050098197571
0004c0 46 6c 44 1d 44 a4 d3 3f 00 00 00 00 00 00 f0 bf
       0.3069010053456548 -1.0
0004d0 00 00 00 00 00 00 f0 bf 00 00 00 00 00 00 f0 bf
       -1.0 -1.0
0004e0 25 57 df 99 3b 21 d2 bf 00 00 00 00 00 00 f0 bf
       -0.2832783701572786 -1.0
0004f0 bc 06 dd 7a 41 74 d1 bf a5 98 92 c5 ba 17 ef bf
       -0.2727206897580847 -0.9716466769066484
000500 1a e6 3c 73 c4 10 e4 bf 00 00 00 00 00 00 f0 bf
       -0.6270467997302973 -1.0
000510 de 52 7f b7 f8 72 dc 3f 00 00 00 00 00 00 f0 bf
       0.44451730651534926 -1.0
000520 22 fe 9e f2 71 5c e5 bf 00 00 00 00 00 00 f0 bf
       -0.6675348032658273 -1.0
000530 c3 af 9a 9a e2 54 e5 3f 00 00 00 00 00 00 f0 bf
       0.6666119594205998 -1.0
000540 4f ff cd dd 53 1d e4 bf 00 00 00 00 00 00 f0 bf
       -0.6285800296900365 -1.0
000550 71 a8 95 c5 dc 26 e5 3f dd 0b a1 04 5e e4 ef bf
       0.6609939440798042 -0.996626862565218
000560 1e 07 76 95 b2 4e b9 bf 00 00 00 00 00 00 f0 bf
       -0.09885707997275658 -1.0
000570 a0 9e 0f 2c 23 a2 d7 3f 00 00 00 00 00 00 f0 bf
       0.3692710809977857 -1.0
000580 aa 55 ac b8 78 07 dd 3f 00 00 00 00 00 00 f0 bf
       0.45358102831354563 -1.0
000590 13 21 30 ff 66 e0 c3 bf 20 df 73 16 3c b2 ed bf
       -0.15528571567870894 -0.9280071676757622
0005a0 ef 0e 87 cb 88 ed e6 3f 00 00 00 00 00 00 f0 bf
       0.7164958930156596 -1.0
0005b0 a9 2f 80 a3 14 2f e8 bf 9c 73 5e 32 2d ab eb bf
       -0.7557471459745005 -0.8646455749291024
0005c0 f0 3d f7 78 a5 53 e7 3f 00 00 00 00 00 00 f0 bf
       0.7289607393849433 -1.0
0005d0 38 44 f4 c8 3e a0 e2 bf 37 3c b1 ea 43 8a ee bf
       -0.582061188210111 -0.9543780883631204
0005e0 82 f5 90 d9 5d 85 e7 3f 00 00 00 00 00 00 f0 bf
       0.7350301026669259 -1.0
0005f0 3b 57 61 df f9 18 e2 bf 25 a3 71 75 7b fb ef bf
       -0.565548836030508 -0.9994485181642615
000600 74 29 86 9f 98 05 c7 3f 00 00 00 00 00 00 f0 bf
       0.17985828198682052 -1.0
000610 40 4b fe 79 e9 73 9f 3f b4 23 43 0c df d1 ea bf
       0.03071560675705176 -0.838119052839025

rewards f8 [49, 1]
000000 fd 29 d9 af 7d a4 03 40 46 a0 6a 75 91 2f 04 40
       2.4553178537510107 2.5232266591229147
000010 ee 78 fb 61 77 07 05 40 33 f4 5c 46 e5 e6 05 40
       2.628645673262432 2.7377419945828705
000020 a2 5c f8 cc a0 dc 06 40 28 7d 4f 25 ad fb 07 40
       2.857728577927973 2.99788884304839
000030 d4 92 5e 8a a2 3e 09 40 a6 f9 e4 67 73 a5 0a 40
       3.1555834589110905 3.33078652541663
000040 19 f3 ab d7 ca 05 0c 40 75 cb d4 a3 bb 25 0d 40
       3.5028282975530485 3.6434243010821157
000050 7e ed f8 31 d3 e9 0d 40 bc 70 1d b6 11 7a 0e 40
       3.7391723541347224 3.809604094289254
000060 fc 19 f7 bd 37 f9 0e 40 d8 75 55 4c 9d 78 0f 40
       3.8716883507761377 3.9338937724667
000070 9e 51 11 ac a6 22 10 40 e4 36 18 e2 78 dd 10 40
       4.033838928753907 4.216281445243769
000080 75 c2 7f 9a b1 f7 11 40 9a 5d fd 7b e3 85 13 40
       4.491888441131427 4.8807505963699445
000090 66 13 a6 f7 fa 94 15 40 c2 e9 38 d8 07 12 18 40
       5.3954886145701035 6.017608049844457
0000a0 f4 6d 68 40 64 c1 1a 40 54 89 fd f8 30 76 1d 40
       6.688858991979476 7.365421190714489
0000b0 bb 96 e2 05 5d 0a 20 40 3c 26 4f d2 d1 49 21 40
       8.020240959081425 8.64417893615893
0000c0 29 29 2e d7 61 68 22 40 54 99 2b 44 e8 3d 23 40
       9.203871464142667 9.620912676164757
0000d0 ac 73 e9 a5 3e b9 23 40 74 b6 b7 33 ce 0d 24 40
       9.861806092021503 10.026963821578853
0000e0 30 92 46 32 f6 73 24 40 1c de 64 25 17 cf 24 40
       10.226487704386358 10.404473465502683
0000f0 d7 80 26 14 04 04 25 40 69 1b e3 cb 50 08 25 40
       10.507843618106945 10.516241427872687
000100 ef 49 9b d0 7d dc 24 40 c6 dc 88 f9 12 93 24 40
       10.430647391277459 10.287254140812717
000110 48 37 01 19 b7 55 24 40 08 37 8f 12 39 61 24 40
       10.167412549398833 10.1898885536025
000120 fc 5e ba c3 d2 2b 25 40 e1 37 94 46 3b 79 26 40
       10.585592381000872 11.23678036269479
000130 c8 14 66 b8 7d f2 25 40 7e 41 f1 b5 6e b0 23 40
       10.973615419827539 9.844594655704665
000140 82 4b 8e a9 0a 28 24 40 16 1c 5d da 1d e6 24 40
       10.078206347103109 10.449446510187084
000150 c7 7f 67 be 14 28 26 40 fd 79 7f 1b 49 9d 26 40
       11.078283262380763 11.307198390303705
000160 9e ce e4 8b a1 56 28 40 53 4c 71 1c 36 55 2a 40
       12.169201251678995 13.166428459959354
000170 91 6c 5d 09 fb 7d 2f 40 8c fa fd 5e 41 5f 32 40
       15.74605588212424 18.372091233259695
000180 b4 00 80 50 ea 60 32 40
       18.37857535481517

discounts f8 [49]
000000 00 00 00 00 00 00 f0 3f 00 00 00 00 00 00 f0 3f
       1.0 1.0
000010 00 00 00 00 00 00 f0 3f 00 00 00 00 00 00 f0 3f
       1.0 1.0
000020 00 00 00 00 00 00 f0 3f 00 00 00 00 00 00 f0 3f
       1.0 1.0
000030 00 00 00 00 00 00 f0 3f 00 00 00 00 00 00 f0 3f
       1.0 1.0
000040 00 00 00 00 00 00 f0 3f 00 00 00 00 00 00 f0 3f
       1.0 1.0
000050 00 00 00 00 00 00 f0 3f 00 00 00 00 00 00 f0 3f
       1.0 1.0
000060 00 00 00 00 00 00 f0 3f 00 00 00 00 00 00 f0 3f
       1.0 1.0
000070 00 00 00 00 00 00 f0 3f 00 00 00 00 00 00 f0 3f
       1.0 1.0
000080 00 00 00 00 00 00 f0 3f 00 00 00 00 00 00 f0 3f
       1.0 1.0
000090 00 00 00 00 00 00 f0 3f 00 00 00 00 00 00 f0 3f
       1.0 1.0
0000a0 00 00 00 00 00 00 f0 3f 00 00 00 00 00 00 f0 3f
       1.0 1.0
0000b0 00 00 00 00 00 00 f0 3f 00 00 00 00 00 00 f0 3f
       1.0 1.0
0000c0 00 00 00 00 00 00 f0 3f 00 00 00 00 00 00 f0 3f
       1.0 1.0
0000d0 00 00 00 00 00 00 f0 3f 00 00 00 00 00 00 f0 3f
       1.0 1.0
0000e0 00 00 00 00 00 00 f0 3f 00 00 00 00 00 00 f0 3f
       1.0 1.0
0000f0 00 00 00 00 00 00 f0 3f 00 00 00 00 00 00 f0 3f
       1.0 1.0
000100 00 00 00 00 00 00 f0 3f 00 00 00 00 00 00 f0 3f
       1.0 1.0
000110 00 00 00 00 00 00 f0 3f 00 00 00 00 00 00 f0 3f
       1.0 1.0
000120 00 00 00 00 00 00 f0 3f 00 00 00 00 00 00 f0 3f
       1.0 1.0
000130 00 00 00 00 00 00 f0 3f 00 00 00 00 00 00 f0 3f
       1.0 1.0
000140 00 00 00 00 00 00 f0 3f 00 00 00 00 00 00 f0 3f
       1.0 1.0
000150 00 00 00 00 00 00 f0 3f 00 00 00 00 00 00 f0 3f
       1.0 1.0
000160 00 00 00 00 00 00 f0 3f 00 00 00 00 00 00 f0 3f
       1.0 1.0
000170 00 00 00 00 00 00 f0 3f 00 00 00 00 00 00 f0 3f
       1.0 1.0
000180 00 00 00 00 00 00 f0 3f
       1.0

skills f8 [49]
000000 00 00 00 00 00 00 00 00 00 00 00 00 00 00 00 00
       0.0 0.0
000010 00 00 00 00 00 00 00 00 00 00 00 00 00 00 00 00
       0.0 0.0
000020 00 00 00 00 00 00 00 00 00 00 00 00 00 00 00 00
       0.0 0.0
000030 00 00 00 00 00 00 00 00 00 00 00 00 00 00 00 00
       0.0 0.0
000040 00 00 00 00 00 00 00 00 00 00 00 00 00 00 00 00
       0.0 0.0
000050 00 00 00 00 00 00 00 00 00 00 00 00 00 00 00 00
       0.0 0.0
000060 00 00 00 00 00 00 00 00 00 00 00 00 00 00 00 00
       0.0 0.0
000070 00 00 00 00 00 00 00 00 00 00 00 00 00 00 00 00
       0.0 0.0
000080 00 00 00 00 00 00 00 00 00 00 00 00 00 00 00 00
       0.0 0.0
000090 00 00 00 00 00 00 00 00 00 00 00 00 00 00 00 00
       0.0 0.0
0000a0 00 00 00 00 00 00 00 00 00 00 00 00 00 00 00 00
       0.0 0.0
0000b0 00 00 00 00 00 00 00 00 00 00 00 00 00 00 00 00
       0.0 0.0
0000c0 00 00 00 00 00 00 00 00 00 00 00 00 00 00 00 00
       0.0 0.0
0000d0 00 00 00 00 00 00 00 00 00 00 00 00 00 00 00 00
       0.0 0.0
0000e0 00 00 00 00 00 00 00 00 00 00 00 00 00 00 00 00
       0.0 0.0
0000f0 00 00 00 00 00 00 00 00 00 00 00 00 00 00 00 00
       0.0 0.0
000100 00 00 00 00 00 00 00 00 00 00 00 00 00 00 00 00
       0.0 0.0
000110 00 00 00 00 00 00 f0 3f 00 00 00 00 00 00 f0 3f
       1.0 1.0
000120 00 00 00 00 00 00 f0 3f 00 00 00 00 00 00 f0 3f
       1.0 1.0
000130 00 00 00 00 00 00 f0 3f 00 00 00 00 00 00 00 00
       1.0 0.0
000140 00 00 00 00 00 00 00 00 00 00 00 00 00 00 00 00
       0.0 0.0
000150 00 00 00 00 00 00 00 00 00 00 00 00 00 00 f0 3f
       0.0 1.0
000160 00 00 00 00 00 00 f0 3f 00 00 00 00 00 00 f0 3f
       1.0 1.0
000170 00 00 00 00 00 00 f0 3f 00 00 00 00 00 00 f0 3f
       1.0 1.0
000180 00 00 00 00 00 00 f0 3f
       1.0

successes f8 [49]
000000 00 00 00 00 00 00 00 00 00 00 00 00 00 00 00 00
       0.0 0.0
000010 00 00 00 00 00 00 00 00 00 00 00 00 00 00 00 00
       0.0 0.0
000020 00 00 00 00 00 00 00 00 00 00 00 00 00 00 00 00
       0.0 0.0
000030 00 00 00 00 00 00 00 00 00 00 00 00 00 00 00 00
       0.0 0.0
000040 00 00 00 00 00 00 00 00 00 00 00 00 00 00 00 00
       0.0 0.0
000050 00 00 00 00 00 00 00 00 00 00 00 00 00 00 00 00
       0.0 0.0
000060 00 00 00 00 00 00 00 00 00 00 00 00 00 00 00 00
       0.0 0.0
000070 00 00 00 00 00 00 00 00 00 00 00 00 00 00 00 00
       0.0 0.0
000080 00 00 00 00 00 00 00 00 00 00 00 00 00 00 00 00
       0.0 0.0
000090 00 00 00 00 00 00 00 00 00 00 00 00 00 00 00 00
       0.0 0.0
0000a0 00 00 00 00 00 00 00 00 00 00 00 00 00 00 00 00
       0.0 0.0
0000b0 00 00 00 00 00 00 00 00 00 00 00 00 00 00 00 00
       0.0 0.0
0000c0 00 00 00 00 00 00 00 00 00 00 00 00 00 00 00 00
       0.0 0.0
0000d0 00 00 00 00 00 00 00 00 00 00 00 00 00 00 00 00
       0.0 0.0
0000e0 00 00 00 00 00 00 00 00 00 00 00 00 00 00 00 00
       0.0 0.0
0000f0 00 00 00 00 00 00 00 00 00 00 00 00 00 00 00 00
       0.0 0.0
000100 00 00 00 00 00 00 00 00 00 00 00 00 00 00 00 00
       0.0 0.0
000110 00 00 00 00 00 00 00 00 00 00 00 00 00 00 00 00
       0.0 0.0
000120 00 00 00 00 00 00 00 00 00 00 00 00 00 00 00 00
       0.0 0.0
000130 00 00 00 00 00 00 00 00 00 00 00 00 00 00 00 00
       0.0 0.0
000140 00 00 00 00 00 00 00 00 00 00 00 00 00 00 00 00
       0.0 0.0
000150 00 00 00 00 00 00 00 00 00 00 00 00 00 00 00 00
       0.0 0.0
000160 00 00 00 00 00 00 00 00 00 00 00 00 00 00 00 00
       0.0 0.0
000170 00 00 00 00 00 00 00 00 00 00 00 00 00 00 00 00
       0.0 0.0
000180 00 00 00 00 00 00 f0 3f
       1.0
